practical/1/mnist-no-hidden-layer.pth (torch, 33004 bytes, 2 tensors)

linear1.weight f4 [10, 784]
0.016017493 0.0016096149 0.014256261 -0.0019288149 -0.025162758 0.030940317 -0.0033289024 0.02427424
0.014759013 0.021052307 0.024936566 0.0032332882 0.014223588 0.016514271 -0.022583395 0.013426747
0.015316747 -0.033811346 0.0056699007 0.028816467 0.00704988 -0.02309475 -0.015033433 -0.03211053
0.0102158105 0.031071141 -0.015992403 0.030723305 0.023411982 -0.014233926 0.0032319343 -0.025242854
-0.029470315 -0.008704644 0.02365094 -0.03302933 -0.010937056 -0.033736035 -0.031119823 -0.011253771
0.005792617 -0.013224077 0.003363203 0.019788697 -0.0173241 -0.020425374 -0.025135692 -0.0020092507
-0.014565882 -0.0042868224 0.0047124643 0.021485485 0.01146624 0.024508469 -0.0136049995 0.029921256
0.026398486 -0.004789574 0.032180123 0.012015491 -0.024925556 0.031143773 0.0026131498 0.0064798906
-0.02225667 0.022128964 -0.028685559 -0.023720184 0.016965386 0.013713398 0.01604332 -0.026621595
0.0058758836 0.0075674336 0.006877975 0.0026715007 0.026993101 0.017704517 0.00786467 0.015445607
-0.028288798 -0.010470915 0.01825125 -0.026528334 -0.016282419 -0.013668427 -0.0003633145 0.028389435
-0.005907876 0.027343938 -0.021600023 0.021350505 -0.013868953 -0.017449232 -0.04602257 -0.019413613
-0.026859129 -0.032886233 -0.025759548 -0.028076788 -0.049295332 -0.0294426 -0.018028785 -0.023553677
-0.014063213 -0.002940328 -0.049471132 0.025692865 -0.011303973 -0.034628943 -0.03347868 -0.03496018
-0.025423618 0.009694936 -0.02932687 0.015990367 4.1321142e-05 0.006809309 -0.03758857 -0.009546163
-0.050554443 0.002979324 -0.01166839 -0.010385615 -0.002207759 0.012540001 -0.0032072437 0.001769006
-0.0030483715 0.0110575855 -0.027628988 -0.058612294 -0.017313212 -0.011483981 -0.014589017 -0.045396253
-0.016148815 -0.025935823 0.00032847776 0.028410835 0.030786768 -0.029332414 -0.03213247 0.030667813
0.0047136093 -0.019010741 -0.03127359 -0.037561405 -0.07700458 -0.07828424 -0.013073966 0.0034720444
0.032839354 0.039586607 0.06449465 0.12814444 0.10878347 0.08829896 0.042469833 0.013883843
0.009932445 -0.011076167 -0.008471023 -0.0077621643 0.0060694297 -0.02217124 0.0034875951 0.027984077
0.025694175 0.03521947 0.00822577 0.017077709 -0.007866945 -0.03818025 0.0010004055 -0.04633074
-0.06555907 -0.06465875 -0.06157847 0.02456474 0.05388304 0.061863977 0.11600327 0.086452015
0.12821683 0.1597076 0.09947529 0.079111725 0.0567978 0.055093788 -0.016661441 -0.022685708
-0.060661044 6.237498e-05 0.025291182 0.015283935 -0.017764961 -0.003484949 -0.008922279 -0.030166196
0.010957796 -0.045819283 -0.02951568 -0.018400716 -0.049499974 -0.014851248 -0.027086724 -0.0094315335
0.0066492376 0.06258286 0.094669364 0.092390224 0.12910053 0.15069242 0.13712636 0.12798436
0.07719864 0.05218602 0.07014314 -0.036047723 -0.032640718 -0.003598544 0.015731625 0.01764722
0.0055300198 0.020530904 -0.026384028 0.028773027 -0.02099203 -0.012158788 -0.061154015 -0.03316243
-0.047611874 -0.039430633 -0.014345963 0.041262392 0.008087116 0.06809912 0.04252371 0.085285656
0.1645359 0.13088492 0.14486498 0.09663864 0.047288503 0.030602165 0.07799264 0.04794747
-0.00833805 -0.06129171 -0.038499437 -0.0029188974 0.006486066 -0.013581313 0.0010270815 -0.018861923
00000000: 1e37 833c b7f9 d23a 1893 693c 4ad0 fcba
00000010: 2122 cebc 8c76 fd3c b729 5abb c5da c63c
00000020: cacf 713c e375 ac3c c547 cc3c 93e5 533b
00000030: 0d0a 693c f048 873c d000 b9bc dcfb 5b3c
00000040: 18f3 7a3c c47d 0abd 93ca b93b 8310 ec3c
00000050: ae02 e73b 3331 bdbc ca4e 76bc 5586 03bd
00000060: 3760 273c e888 fe3c 8002 83bc 71af fb3c
00000070: 7cca bf3c 6a35 69bc dcce 533b 1aca cebc
00000080: bb6b f1bc ec9d 0ebc 9ebf c13c c349 07bd
00000090: 5631 33bc cc2e 0abd 00ef febc bd61 38bc
000000a0: fecf bd3b cda9 58bc 2f69 5c3b e81b a23c
000000b0: 45eb 8dbc 1d53 a7bc 5ee9 cdbc a2ad 03bb
000000c0: bda5 6ebc 7978 8cbb 046b 9a3b 5402 b03c
000000d0: e5dc 3b3c fcc5 c83c 81e7 5ebc 6c1d f53c
000000e0: a341 d83c dcf1 9cbb 4ecf 033d 9fdc 443c
000000f0: ae30 ccbc 3a21 ff3c 6141 2b3b 4355 d43b
00000100: 9f53 b6bc cd47 b53c fafd eabc d550 c2bc
00000110: fefa 8a3c 29ae 603c 486d 833c 8815 dabc
00000120: 7c8a c03b 3cf8 f73b a360 e13b 5814 2f3b
00000130: a320 dd3c 1009 913c d1da 003c 920f 7d3c
00000140: e9bd e7bc 338e 2bbc a583 953c f351 d9bc
00000150: b562 85bc 8af1 5fbc 3f7b beb9 f690 e83c
00000160: db96 c1bb 6500 e03c 88f2 b0bc 41e7 ae3c
00000170: 9b3a 63bc b1f1 8ebc 2a82 3cbd 4c09 9fbc
00000180: ad07 dcbc b7b3 06bd b005 d3bc 4b01 e6bc
00000190: e7e9 49bd 9c31 f1bc 1ab1 93bc a4f3 c0bc
000001a0: 6469 66bc 85b2 40bb 3ea2 4abd d879 d23c
000001b0: 4d34 39bc 14d7 0dbd f120 09bd 6832 0fbd
000001c0: 3145 d0bc 82d7 1e3c e73e f0bc 3bfe 823c
000001d0: 3d50 2d38 a020 df3b 79f6 19bd 8267 1cbc
000001e0: 2d12 4fbd c340 433b c62c 3fbc 6d28 2abc
000001f0: 0db0 10bb 9474 4d3c 9f30 52bb fedd e73a
00000200: 30c7 47bb e02a 353c 3056 e2bc 7213 70bd
00000210: 70d4 8dbc 4f27 3cbc c606 6fbc 6cf1 39bd
00000220: 854a 84bc 5d77 d4bc 8a37 ac39 d7bd e83c
00000230: 8834 fc3c 884a f0bc 569d 03bd 113b fb3c
00000240: 9f74 9a3b 6abc 9bbc bc18 00bd fdd9 19bd
00000250: 94b4 9dbd 7d53 a0bd 3034 56bc 3d8b 633b
00000260: 8f82 063d 9125 223d c515 843d 4c38 033e
00000270: dec9 de3d 16d6 b43d d9f4 2d3d 0f79 633c
00000280: b2bb 223c d078 35bc 0cca 0abc c159 febb
00000290: 11e2 c63b 76a0 b5bc 2390 643b dd3e e53c
000002a0: 977c d23c 4a42 103d 61c5 063c 8de6 8b3c
000002b0: 5ce4 00bc e562 1cbd 0a20 833a 4dc5 3dbd
000002c0: d543 86bd cf6b 84bd b539 7cbd fe3b c93c
000002d0: 76b4 5c3d 1565 7d3d 1f93 ed3d c10d b13d
000002e0: 464b 033e 648a 233e b3b9 cb3d 5405 a23d
000002f0: cfa4 683d 06aa 613d 937d 88bc 61d7 b9bc
00000300: b777 78bd 50cf 8238 742f cf3c 7869 7a3c
00000310: d387 91bc be63 64bb c02e 12bc 191f f7bc
00000320: 5488 333c 00ad 3bbd deca f1bc 19bd 96bc
00000330: 7cc0 4abd a652 73bc fae4 ddbc b886 1abc
00000340: d9e1 d93b 712b 803d 03e2 c13d 1637 bd3d
00000350: ee32 043e 1d4f 1a3e da6a 0c3e 550e 033e
00000360: 521a 9e3d 02c1 553d 35a7 8f3d c7a6 13bd
00000370: 46b2 05bd 8dd5 6bbb 9cdf 803c e790 903c
00000380: 2b35 b53b 6d30 a83c 5123 d8bc 69b5 eb3c
00000390: 7af7 abbc a735 47bc a27c 7abd 54d5 07bd
000003a0: ab04 43bd 0482 21bd 540b 6bbc c102 293d
000003b0: d37f 043c 8d77 8b3d 572d 2e3d 3faa ae3d
000003c0: 197c 283e b206 063e 7c57 143e 7bea c53d
000003d0: 97b1 413d 64b1 fa3c 9bba 9f3d 9164 443d
000003e0: 519c 08bc 040d 7bbd 96b1 1dbd f94a 3fbb
000003f0: 1189 d43b 2884 5ebc 239f 863a 5284 9abc

linear1.bias f4 [10]
-0.11544295 0.2571596 -0.00059124944 -0.11822968 0.06703433 0.40486667 -0.016682196 0.22158365
-0.5476877 -0.05685809
00000000: 5a6d ecbd 6caa 833e 14fe 1aba 6722 f2bd
00000010: 4b49 893d af4a cf3e 1aa9 88bc d3e6 623e
00000020: 4335 0cbf 07e4 68bd
