practical/1/mnist-no-hidden-layer.pth (torch, 33004 bytes, 2 tensors)

linear1.weight f4 [10, 784]
0	0x3b8784ca	0.0041357027
1	0xbcf14481	-0.02945161
2	0x3c92c49e	0.01791602
3	0xbcc4b7d1	-0.024013432
4	0x3cfea03a	0.031082261
5	0xbcf41d5c	-0.029799156
6	0x3ccf7dd5	0.025328556
7	0x3b1ee2ca	0.0024244064
8	0x3ca324b3	0.01991496
9	0xbca50cca	-0.0201477
10	0xbb84eb53	-0.004056373
11	0x3bc1de41	0.0059163873
12	0x3c8c374d	0.017116213
13	0x3bd0079e	0.0063485643
14	0x3c43edd8	0.011958562
15	0x3a1c2af0	0.0005957326
16	0x3cc54f55	0.02408568
17	0xbc8ec423	-0.01742751
18	0x3cd6076a	0.026126582
19	0x3c27ee85	0.010249739
20	0x3ce01fee	0.027358975
21	0x3c88eb47	0.016713751
22	0xbceea745	-0.029132495
23	0xbb080e25	-0.0020760384
24	0x3ca3e5de	0.02000707
25	0xbd0df880	-0.034660816
26	0x3ce3a36c	0.027787887
27	0xbcdad7d1	-0.026714237
28	0xbb85f325	-0.004087823
29	0x3b63a3a5	0.003473499
30	0xbc2b424e	-0.01045282
31	0xbcbd77ba	-0.02312838
32	0x3b889c4e	0.0041690236
33	0xba44e599	-0.00075110194
34	0xbc3eff5f	-0.011657565
35	0x3c9773f2	0.018487904
36	0x3ba8e9e4	0.005154835
37	0x3c8d4143	0.017243033
38	0xbce5525b	-0.027993372
39	0xbcb85413	-0.022501027
40	0x3ccca1db	0.024979522
41	0xbd0bdf43	-0.034148466
42	0xbcc8c90b	-0.024509927
43	0x3a7bfb7c	0.0009612364
44	0xbc999348	-0.018746987
45	0x3d07beac	0.033140823
46	0x3cd1d85d	0.025615865
47	0x3cdc92eb	0.026925525
48	0xbb8e7fb4	-0.0043487195
49	0xbc567841	-0.013090194
50	0xbc7928a9	-0.015207448
51	0xbc5aaf9b	-0.013347532
52	0x3cfa1261	0.030526342
53	0x3c92a0f7	0.01789902
54	0xbae14db8	-0.00171893
55	0xbcd8e4f3	-0.026476359
56	0x3d1248a0	0.03571379
57	0x3c23cd0e	0.009997619
58	0x3c49ab9e	0.012308983
59	0x3b84c202	0.004051448
60	0xbcaf0156	-0.021362942
61	0xbce3ee6f	-0.027823655
62	0xbc0799c2	-0.008276405
63	0xbc44dc20	-0.0120153725
64	0x3cca4698	0.024691865
65	0x3b130da9	0.0022438562
66	0xbbc7bfd8	-0.0060958676
67	0xbc7aa384	-0.015297774
68	0x3cbc4726	0.022983145
69	0xbd0ee641	-0.034887556
70	0xbd1814f4	-0.037129357
71	0xbd02246b	-0.031773012
72	0xbc60614b	-0.013695071
73	0xbce2e3bb	-0.027696481
74	0x3c414fe8	0.011798836
75	0x3cccd054	0.025001682
76	0xbc964f36	-0.018348318
77	0xb9ae379f	-0.00033229307
78	0xbd0013ba	-0.031268813
79	0xbadff289	-0.0017085831
80	0xb9442287	-0.00018704879
81	0x3d0a8215	0.033815462
82	0x3bc5b241	0.0060332124
83	0xbc92530c	-0.017861865
84	0xbcc7ce91	-0.02439049
85	0x3c25588e	0.010091914
86	0x3cea3723	0.028590744
87	0xbc911dc9	-0.017714398
88	0x3bfddd0a	0.007747297
89	0xba45d66c	-0.0007546905
90	0x3ca35004	0.019935615
91	0x3ca32d0d	0.019918943
92	0xbd0cddeb	-0.034391325
93	0xbb8a7283	-0.0042250766
94	0xbd394581	-0.0452323
95	0xbbfc2fd0	-0.0076961294
96	0xbc968cd3	-0.018377697
97	0x3c3b86b1	0.011445687
98	0xbce1b307	-0.027551187
99	0xbd80ab5f	-0.062826864
100	0xbcbc0fab	-0.02295669
101	0xbca4d166	-0.02011938
102	0xbd6ee58e	-0.05832439
103	0xbd497f10	-0.049193442
104	0x3b94bfda	0.004539472
105	0xbbd29a9d	-0.0064271227
106	0xbd30268a	-0.043005504
107	0xbd1c0be7	-0.03809729
108	0x3baf52bd	0.0053504393
109	0x3ca99fe4	0.020706125
110	0x3d00f755	0.031485874
111	0x3c8550c3	0.016273862
112	0x3d105de5	0.035245795
113	0xbc468d50	-0.012118652
114	0xbcb9ce1f	-0.022681294
115	0xba45d6eb	-0.0007546979
116	0x3ba1e57a	0.004940686
117	0x3c8eb15f	0.017418562
118	0x3c6b5aec	0.014364939
119	0xbc1f7581	-0.009732605
120	0xbc30f646	-0.010800904
121	0xbd2f9cba	-0.042874075
122	0xbae99e8d	-0.0017823741
123	0xbd7685cd	-0.060186196
124	0x3be38144	0.0069429
125	0x3c29e516	0.01036956
126	0xbcbc027b	-0.022950402
127	0x3ca730d7	0.02040903
128	0x3b650885	0.0034947705
129	0xbca82e82	-0.02052999
130	0xbc359347	-0.011082477
131	0xbb83e579	-0.004025158
132	0xbcaf3770	-0.02138874
133	0xbceccf5d	-0.028907472
134	0xbd2450bc	-0.040116057
135	0xb7bfcf65	-2.286555e-05
136	0xbc6da95d	-0.014505711
137	0xbaf1be2c	-0.0018443516
138	0xbc87db8a	-0.016584177
139	0x3b6045f0	0.0034221373
140	0xbcd61843	-0.026134616
141	0x3ccf20b1	0.025284143
142	0x3cee878e	0.029117372
143	0xbc9e37cb	-0.019313714
144	0xbaf51034	-0.0018696846
145	0xbd036279	-0.032076333
146	0xbc9adf85	-0.01890541
147	0xba77ccb3	-0.0009452805
148	0xbd2aa301	-0.04165936
149	0xbc35b541	-0.011090578
150	0xbc0ebd1c	-0.008712079
151	0xbc820cc3	-0.015875226
152	0x3b886b85	0.004163208
153	0x3d11b4f4	0.03557296
154	0x3d9abbe6	0.0755537
155	0x3dadc0a1	0.08484007
156	0x3dcf50a0	0.101228
157	0x3d8348ad	0.06410346
158	0x3d344751	0.044013325
159	0x3d49d67d	0.049276818
160	0x3ca400a2	0.020019833
161	0xbcee92b6	-0.029122692
162	0xbc81e5a9	-0.01585658
163	0xbc2884ec	-0.010285597
164	0xbd049be7	-0.032375243
165	0x3ca403a9	0.020021277
166	0x3d009634	0.031393245
167	0x3c9599e2	0.018261854
168	0xbc799141	-0.015232385
169	0x3b5931a5	0.0033141163
170	0x3caff7c5	0.02148045
171	0xbce67174	-0.02813027
172	0x3c7a1d93	0.01526584
173	0x3c61efd2	0.013790088
174	0xbbfe3318	-0.0077575557
175	0xbcb32144	-0.021866448
176	0xbd938805	-0.07203678
177	0xbcc5b64f	-0.024134783
178	0xbcf3ea12	-0.0297747
179	0xbbfe81b1	-0.0077669253
180	0x3ccdc39b	0.025117686
181	0x3d5e0d5c	0.05421196
182	0x3d9aa65e	0.07551263
183	0x3d9bcfbd	0.07607982
184	0x3e11798d	0.14206524
185	0x3dcfc6bc	0.101453274
186	0x3e05df86	0.13073549
187	0x3d905819	0.07048053
188	0x3d6a9211	0.057268206
189	0x3c98dc57	0.018659754
190	0xbaab8682	-0.0013086351
191	0xbd53d937	-0.051720824
192	0xbd73a649	-0.059484754
193	0xbcfe1b7a	-0.031018961
194	0x3b17ead5	0.0023180742
195	0xbce1a601	-0.027544977
196	0xbc6db627	-0.0145087605
197	0xbcfdfc62	-0.031004135
198	0xbc2ce5a2	-0.010552796
199	0x3c417020	0.011806518
200	0x3cbbe9f2	0.022938702
201	0xbc0e245e	-0.008675663
202	0xbd1384e1	-0.036015395
203	0xbd8f7d50	-0.07006323
204	0xbd2bd4e1	-0.041951064
205	0xbab9f11c	-0.0014186236
206	0xbd1b8c6b	-0.03797571
207	0xbc62731a	-0.013821388
208	0x3c487283	0.012234333
209	0x3d9b52c4	0.07584146
210	0x3d3e84d6	0.0465134
211	0x3d845df0	0.0646323
212	0x3e14f357	0.14545952
213	0x3e04982d	0.12948675
214	0x3df76c0f	0.120811574
215	0x3dd89db7	0.10576957
216	0x3cf00d3c	0.029303186
217	0x3cc200e0	0.023682058
218	0x3ce740df	0.028229175
219	0xbca0f24f	-0.019646792
220	0xbd7ae023	-0.06124891
221	0xbccd142e	-0.025034036
222	0xbc06022e	-0.008179231
223	0x3b9075b9	0.004408565
224	0x3c3b4493	0.011429924
225	0xbc49bcc0	-0.012313068
226	0xbc4bb1a4	-0.01243249
227	0xbcaedc79	-0.021345364
228	0x3ad8d122	0.0016541819
229	0x3c437fab	0.011932294
230	0x3a0459e1	0.00050487934
231	0xbd82a451	-0.06378997
232	0xbcc9d9e0	-0.024640024
233	0xbd3f7fd2	-0.04675276
234	0xbcd248e6	-0.025669526
235	0x3b7599ba	0.0037475661
236	0x3d055ac6	0.03255727
237	0x3d26e9cb	0.040750306
238	0x3d7eb1cd	0.062181283
239	0x3d586f44	0.052840486
240	0x3dabe1cb	0.08392676
241	0x3e17c48d	0.14821072
242	0x3defb682	0.117047325
243	0x3da61506	0.08109479
244	0x3d7b781f	0.061393853
245	0x3ced653b	0.028978935
246	0x3d177821	0.0369798
247	0x3d28ce6b	0.04121248
248	0xbc3dfd37	-0.011596016
249	0xbcc8c240	-0.024506688
250	0xba3c2b9f	-0.0007178131
251	0x3c45cfa7	0.012073434
252	0xbc920baf	-0.017827837
253	0xbcb2c0ee	-0.021820512
254	0xbce77382	-0.02825332
255	0x3c46d421	0.012135536

linear1.bias f4 [10]
0	0xbd8a0f9e	-0.0674126
1	0x3e3e1c7f	0.18565558
2	0xbd1eedda	-0.03880105
3	0xbdc1c123	-0.09460666
4	0x3db54b42	0.08852245
5	0x3e73df63	0.23815684
6	0x3c5c73c7	0.013455338
7	0x3e2c5eb0	0.16832995
8	0xbeae0f25	-0.3399593
9	0xbce6f394	-0.028192319
