practical/1/mnist-with-hidden-layer.pth (torch, 409360 bytes, 4 tensors)

linear1.weight f4 [128, 784]
0	0xbcf1725c	-0.029473476
1	0xbcca0f6e	-0.02466556
2	0xbce3d685	-0.027812252
3	0xbc90545e	-0.017618354
4	0x3ac80e93	0.0015263133
5	0x3c85f443	0.016351825
6	0x3cc7a5a1	0.02437097
7	0xbcce77fa	-0.025203694
8	0xbb92c9e5	-0.004479634
9	0xba801ab7	-0.0009773587
10	0xbc7efc13	-0.015563029
11	0x3ce883a1	0.028383078
12	0xbc7dca9d	-0.015490201
13	0x3b81dc28	0.0039630122
14	0x3cab68c0	0.020923972
15	0xba0dcff9	-0.00054097135
16	0xbc493a1c	-0.012281921
17	0xbd0e6896	-0.03476771
18	0xbce591be	-0.028023597
19	0xbc3e4dc5	-0.011615221
20	0xbaa707dc	-0.0012743431
21	0xbd0bad70	-0.03410095
22	0xbcfdd418	-0.030984923
23	0xbca84cdc	-0.020544462
24	0x3d0200df	0.031739112
25	0xbbf5d1ee	-0.007501832
26	0x3cf7eef5	0.03026531
27	0xbc6ce945	-0.014459913
28	0xbc9bc043	-0.019012576
29	0x3bc0810a	0.0058747577
30	0xbd08187d	-0.03322648
31	0x3ba5cfae	0.0050601577
32	0xbcf962ed	-0.03044268
33	0x3cbceef6	0.023063164
34	0x3c7acc01	0.015307427
35	0xbc7bed96	-0.015376469
36	0x3d044691	0.03229386
37	0x3b3e8082	0.0029068296
38	0x3c22acf7	0.009928933
39	0x3ce141e6	0.027497243
40	0x3cc70a0b	0.024296781
41	0xbcd4cb4f	-0.025975851
42	0x3b9e9a5f	0.00484018
43	0xbd159412	-0.036518164
44	0x3be4d3e3	0.0069832667
45	0x3ca7e402	0.020494465
46	0xbbc559f6	-0.006022687
47	0x3bd4df2e	0.0064963317
48	0xbaa9a241	-0.0012942032
49	0x3d0a24a8	0.033726364
50	0xbc4eed28	-0.012629785
51	0x3c15b20b	0.009136687
52	0xbc8b20dc	-0.016983442
53	0xbcbd5f93	-0.023116862
54	0x3d11aec4	0.03556706
55	0xbc267b80	-0.010161281
56	0xbd092512	-0.03348262
57	0x3cd94991	0.026524337
58	0xbb7b01b0	-0.0038300566
59	0xbd0d0627	-0.034429695
60	0x3cfced51	0.03087488
61	0x3b9b8c73	0.0047469675
62	0xbc832370	-0.016008109
63	0xbd1581e4	-0.036500826
64	0x3cea6d90	0.028616697
65	0xbc6c35a8	-0.0144170895
66	0xbbf45f4a	-0.0074576484
67	0x3c2228e5	0.009897445
68	0x3c927813	0.017879521
69	0xbcd1b19b	-0.025597384
70	0xbd11a66c	-0.035559103
71	0xbd294d3d	-0.041333426
72	0xb99476da	-0.0002831731
73	0x3cdac3c7	0.026704682
74	0xbc7548d2	-0.014970975
75	0x3cacffe1	0.021118106
76	0xbc53b7f3	-0.012922275
77	0x3caecdc5	0.021338353
78	0x3cb83e77	0.022490723
79	0xbc1ad8f0	-0.009451136
80	0x3c96fc64	0.018430896
81	0x3cd75f37	0.02629052
82	0xbccebc9e	-0.025236424
83	0xbce020ce	-0.027359392
84	0xbcaa9cbe	-0.020826694
85	0x3d0f71b2	0.035020538
86	0x3ce36a3c	0.027760617
87	0xbc460d3e	-0.012088118
88	0x3ca932c1	0.020654084
89	0x3cf98ca1	0.030462565
90	0x3ce3636f	0.027757375
91	0x3cb509e6	0.022099447
92	0x3bb915d9	0.0056483564
93	0xbcd6bb30	-0.026212305
94	0xbd476ca9	-0.04868761
95	0x3c667372	0.01406561
96	0xbd353c52	-0.04424698
97	0x3c26dfca	0.010185191
98	0xbd590eec	-0.052992746
99	0xbd7519db	-0.05983911
100	0xbca26ebd	-0.019828195
101	0xbc830f7b	-0.015998593
102	0xbd1bd64a	-0.03804616
103	0x3aa19f1b	0.0012330742
104	0x3c603416	0.013684293
105	0xbc872f5e	-0.016502079
106	0xbc608fdb	-0.013706173
107	0x3d05ad03	0.0326357
108	0xbbbd19ee	-0.0057709133
109	0x3c8730bf	0.016502736
110	0x3abf95ce	0.0014616789
111	0x3cf7223a	0.030167688
112	0x3ca90795	0.020633498
113	0x3c7ae302	0.015312912
114	0x3d100177	0.035157647
115	0xbb0dd834	-0.002164376
116	0x3cd0e565	0.025500009
117	0xbce30840	-0.027713895
118	0x3b635049	0.0034685305
119	0x3cb33019	0.02187352
120	0xbce95490	-0.028482705
121	0xbc481b3a	-0.012213523
122	0xbd6132e4	-0.054980174
123	0xbd08adef	-0.033369
124	0xbb969b6b	-0.004596164
125	0xbd20556b	-0.03914396
126	0xbb56b0ad	-0.0032759116
127	0xbc872b14	-0.016500033
128	0xbd41c19c	-0.04730378
129	0xbc9d97f6	-0.0192375
130	0xbba91bcf	-0.0051607857
131	0xbcfc014f	-0.030762343
132	0xbbfe82be	-0.0077670505
133	0xbcba35e6	-0.022730779
134	0xbcb1b6c5	-0.021693597
135	0xbcfb6ad2	-0.030690584
136	0xbca9102b	-0.020637592
137	0x3b04c92c	0.002026151
138	0x3cdc1d33	0.026869392
139	0xbc1292a7	-0.008946097
140	0xbcf8e8aa	-0.03038438
141	0x3c317f53	0.010833579
142	0xbb9eecda	-0.0048500123
143	0x3bbbcc4e	0.005731142
144	0xbbd10e66	-0.0063798903
145	0xbcac79e2	-0.021054212
146	0x3c07bf11	0.0082853
147	0xbce33ebf	-0.02773988
148	0xbc61e4bb	-0.013787444
149	0xbd69a959	-0.057046268
150	0xbc8f93fc	-0.01752662
151	0x3c388ce9	0.011264064
152	0x3c803cbc	0.01565396
153	0x3c3e7a5b	0.0116258515
154	0xbd1ddc6a	-0.03854028
155	0xbbd66537	-0.0065428275
156	0xbd4b80b1	-0.049683277
157	0xbd90a583	-0.07062819
158	0xbc9f33e0	-0.019433916
159	0xbd205529	-0.039143715
160	0xbd669036	-0.056289874
161	0xbce19c92	-0.027540479
162	0x3b7640b0	0.0037575178
163	0x3c88d715	0.016704122
164	0xbcddabc7	-0.027059449
165	0x3cb0506f	0.021522729
166	0xbbab1b9c	-0.005221797
167	0x3ceaff6d	0.02868625
168	0xbd08f05b	-0.033432346
169	0xbd116529	-0.035496864
170	0x3c97bc51	0.018522413
171	0xbc4abf7f	-0.012374758
172	0x3cdc7cc1	0.026914956
173	0xbd173b12	-0.03692157
174	0x3c9f3af2	0.019437287
175	0x3c29cc37	0.01036363
176	0xbc68898b	-0.014192949
177	0xbd127b37	-0.035762038
178	0xbba010a6	-0.004884797
179	0x3d14bc1d	0.03631221
180	0x3d1dafc2	0.038497694
181	0xbccb9d9e	-0.024855431
182	0x3d0df3a2	0.034656174
183	0x3c481d87	0.012214071
184	0x396eb2cb	0.00022764054
185	0xbcbcdf19	-0.0230556
186	0xbc9ccf08	-0.019141689
187	0xbd356f9f	-0.044295903
188	0xbcee3f86	-0.029083025
189	0xbd274186	-0.040833972
190	0xbcc84f74	-0.024451949
191	0x3c09b2c4	0.008404437
192	0xbd16d1d9	-0.03682122
193	0x3cdd995a	0.027050663
194	0xbd01516b	-0.031571787
195	0x3ba39abe	0.004992812
196	0xb97897f9	-0.00023707737
197	0xbc9ff689	-0.019526737
198	0xbb217240	-0.0024634749
199	0x3d034f2d	0.03205793
200	0xbceef7f0	-0.02917096
201	0x3ccec960	0.025242507
202	0xbc52519d	-0.012836841
203	0xba14a345	-0.0005670081
204	0x3cf794ab	0.030222258
205	0xb94f397b	-0.00019762471
206	0xbbc1f2bb	-0.0059188283
207	0x3d1c2bbd	0.03812765
208	0x3d3a49b5	0.04548045
209	0xbbb13930	-0.0054084286
210	0x3d24d1d6	0.040239178
211	0x3c974db1	0.018469663
212	0x3d1d8729	0.038458977
213	0x3ca3f0f1	0.02001235
214	0x3c909a45	0.017651686
215	0x3be77895	0.007063935
216	0x3919b9ac	0.00014660385
217	0x3d0e6095	0.034760077
218	0xbce95799	-0.028484153
219	0x3c00150e	0.00781752
220	0xbcf6a4cf	-0.030107884
221	0xbd054bde	-0.032543056
222	0xbc03b3a8	-0.008038439
223	0xbcad0120	-0.0211187
224	0xbaa0fb88	-0.0012281993
225	0xbba23b0b	-0.004950886
226	0x3c826a69	0.015919881
227	0x3d0e473b	0.0347359
228	0xbbbab11e	-0.0056973835
229	0x3cdb7a85	0.02679182
230	0xbc2482bb	-0.010040934
231	0xbbf02c1c	-0.007329477
232	0x3bbf2253	0.005832949
233	0x3d176c0a	0.03696827
234	0x3d127ee4	0.035765544
235	0x3d026c60	0.031841636
236	0xbc1d3f86	-0.009597665
237	0x3b788304	0.0037919888
238	0xbc0fc985	-0.008776073
239	0x3d4dde0c	0.05026059
240	0xbc28568d	-0.010274542
241	0x3d321d54	0.043485
242	0x3bf591dc	0.0074941944
243	0x3ccfcc39	0.025365936
244	0x3cc32382	0.023820642
245	0xbc9a3ebe	-0.018828746
246	0xbb9a10e2	-0.0047017196
247	0xbaa59fdd	-0.0012636144
248	0xbc4101f7	-0.011780254
249	0x3c7a9d30	0.0152962655
250	0xbcfaf040	-0.030632138
251	0x3cdcafd9	0.02693932
252	0x3c798cb3	0.015231299
253	0x3aef77e4	0.0018269983
254	0xbd0851cf	-0.033281144
255	0xbcf7ec70	-0.03026411

linear1.bias f4 [128]
0	0xbd94e803	-0.07270815
1	0x3cd9b385	0.02657486
2	0x3948a82d	0.00019136137
3	0x3c8c5bf2	0.017133687
4	0x3d88456c	0.06653866
5	0xbd24259f	-0.04007494
6	0xbc9ee586	-0.019396555
7	0xbce574ae	-0.028009739
8	0xbc951609	-0.018198984
9	0xbc0aa93f	-0.008463203
10	0xbdb0723a	-0.08615537
11	0xbda54041	-0.08068896
12	0xbc08b557	-0.008344016
13	0x3c68ca0a	0.014208326
14	0x3d5a10b7	0.053238597
15	0xbd17971b	-0.03700934
16	0x3c2c4547	0.010514564
17	0xbc11fdb0	-0.0089105815
18	0xbc91ad6e	-0.017782893
19	0xbc09ee4a	-0.008418629
20	0x3c2fc3eb	0.010727863
21	0x3d8ea6e0	0.06965423
22	0x3d1a2d2a	0.037640728
23	0xbc05e0c5	-0.008171265
24	0x3c810396	0.01574878
25	0x3a1927d1	0.000584242
26	0x3c84aabe	0.016194697
27	0x3cf73243	0.030175334
28	0x3d5440e5	0.0518197
29	0xbdb09feb	-0.08624252
30	0x3c1c8f4d	0.00955565
31	0x3b901eea	0.0043982165
32	0x3d810588	0.06299883
33	0xbd7d8e84	-0.06190349
34	0x3c44bea3	0.012008342
35	0x3b0e1264	0.0021678442
36	0x3c06ba64	0.00822315
37	0x3d547aa7	0.051874783
38	0xbd2f8c28	-0.042858273
39	0xbddc609c	-0.10760614
40	0xbbaf6a07	-0.0053532156
41	0x3bfe66b5	0.0077637085
42	0xbd8d9146	-0.06912474
43	0xbd8639b5	-0.065539755
44	0xbd9f5036	-0.07778971
45	0xbe171c6d	-0.14756937
46	0x3cd69470	0.026193827
47	0x3b2e1e0a	0.0026568198
48	0x3d8381c3	0.064212345
49	0x3d5f17ae	0.054465942
50	0x3d4035d0	0.04692632
51	0xbb9040dc	-0.004402263
52	0xbb922a9a	-0.004460645
53	0x3e04ffca	0.12988201
54	0xbd1645f2	-0.0366878
55	0xbe1944ef	-0.14967702
56	0xbdb741d7	-0.08948105
57	0xbd387b72	-0.0450396
58	0xbd70ab1e	-0.05875694
59	0xbcee5a21	-0.029095711
60	0xbd9851a2	-0.07437445
61	0xbd43f2d1	-0.04783899
62	0x3ca1f24c	0.019768856
63	0xbd0ddf29	-0.03463665
64	0x3d4235a8	0.04741445
65	0xbd9327d4	-0.07185331
66	0x3d822453	0.063545845
67	0x3d311331	0.043231193
68	0xbd9a3127	-0.07528906
69	0xbbc310ca	-0.005952929
70	0xbd952fb9	-0.07284493
71	0xbdd4d109	-0.10391433
72	0x3cf949c8	0.03043069
73	0x3d230138	0.039796084
74	0x3d5eea18	0.054422468
75	0xbd44eb15	-0.048075754
76	0x3d8aa6e0	0.0677011
77	0x3d8e6daa	0.069545105
78	0x3d73f3ad	0.05955856
79	0xbd0dff10	-0.034667075
80	0x3db43d99	0.08800811
81	0xbcb74e66	-0.02237625
82	0x3dd4c955	0.103899635
83	0x3d4a80a1	0.049439076
84	0x3da087d6	0.07838409
85	0xbe001aac	-0.12510175
86	0x3ca55f32	0.020186994
87	0x3d621fea	0.055206217
88	0x3ce44d56	0.027868908
89	0xbd8af0e4	-0.067842275
90	0xbda47178	-0.08029455
91	0x3d00c794	0.031440333
92	0x3db3a4b6	0.087716505
93	0x3c41212c	0.011787694
94	0xbda3e0a0	-0.08001828
95	0x3dac9e3d	0.08428619
96	0xbbe3a523	-0.006947176
97	0x3d76f6c1	0.060293917
98	0x3c2377a5	0.009977256
99	0xbd99ee1e	-0.075161204
100	0x39f6518b	0.0004698153
101	0x3c0a4a7c	0.00844061
102	0x3ce73ae7	0.028226329
103	0xbb22c376	-0.0024835742
104	0xbd048d44	-0.032361284
105	0x3960ecb1	0.00021450479
106	0x3de20538	0.11036152
107	0xbacf1735	-0.0015799763
108	0x3cbef184	0.023308523
109	0x3e076588	0.13222325
110	0xbdad1fe7	-0.084533505
111	0x3dfc7027	0.12326079
112	0xbae730ed	-0.0017638482
113	0xbd805bac	-0.06267485
114	0x3d9ff937	0.07811206
115	0x3c846c82	0.016165022
116	0x3d8da06f	0.06915366
117	0x3d106af9	0.035258267
118	0xbd8dac3d	-0.069176175
119	0x3d941254	0.07230058
120	0xbd4ab0a5	-0.049484868
121	0xba031020	-0.0004999656
122	0x3d5ae278	0.053438634
123	0xbda54085	-0.08068947
124	0x3db86d74	0.090052515
125	0x3b1e59d0	0.002416242
126	0xbd41f2ed	-0.047350813
127	0xbc20574c	-0.009786438

linear2.weight f4 [10, 128]
0	0xbea8e849	-0.3298972
1	0xbd9d42fd	-0.076787926
2	0xbd9486b6	-0.072522566
3	0xbd45cf15	-0.048293192
4	0xbe20fbe9	-0.15721096
5	0xbe3c61d7	-0.18396698
6	0x3e3accd3	0.18242197
7	0x3e3a93ec	0.1822049
8	0xbd9390a0	-0.072053194
9	0xbbfffcc8	-0.0078121163
10	0x3db15204	0.08658221
11	0x3eb8a4a8	0.36063123
12	0xbdfa681d	-0.12226889
13	0x3e722c87	0.23649798
14	0xbdf75d2e	-0.120783195
15	0x3dc8e68a	0.09809597
16	0xbe2400b4	-0.16015893
17	0xbbb9f109	-0.0056744856
18	0xbe0d2d36	-0.13786778
19	0x3e206dcf	0.15666889
20	0xbd30e7fa	-0.04318998
21	0xbddc6653	-0.10761704
22	0xbe6d014d	-0.23145027
23	0xbe18d5f3	-0.14925365
24	0x3e0b7665	0.13619383
25	0xbe52ff2b	-0.20605151
26	0xbe193909	-0.14963163
27	0xbd0a198d	-0.033715773
28	0xbe1e5478	-0.1546191
29	0x3de53905	0.11192516
30	0x3e8d9e22	0.27659708
31	0xbe754849	-0.23953356
32	0xbdf9be92	-0.121945515
33	0x3db21c3f	0.08696794
34	0xbe7a4504	-0.2444039
35	0x3d8a9a28	0.06767684
36	0xbcce872c	-0.02521094
37	0xbc575b36	-0.013144305
38	0x3e96b97a	0.29438382
39	0xbd99c892	-0.07508959
40	0xbe74dc20	-0.23912096
41	0x3cc58020	0.024108946
42	0x3d3ca81d	0.046058763
43	0x3ce02999	0.027363585
44	0x3e5aad80	0.21355247
45	0xbdf762fd	-0.120794274
46	0x3e8babb1	0.27279428
47	0xbc9543c2	-0.018220786
48	0xbe5ab829	-0.21359314
49	0x3dfa1ff5	0.122131266
50	0x3d88a9c7	0.066730075
51	0x3dd20209	0.102542944
52	0x3e6d8ee2	0.23199037
53	0xbe04db8c	-0.12974375
54	0x3e199bd7	0.15000854
55	0x3dd7e1b5	0.10541097
56	0xbe5812e6	-0.21100959
57	0xbc73324e	-0.014843537
58	0x3d38461a	0.04498873
59	0xbe38ab39	-0.18034066
60	0xbe8a05c7	-0.26957533
61	0x3e4dd532	0.20100859
62	0xbe9dc496	-0.30814046
63	0xbd901c99	-0.070367046
64	0xbdfc3924	-0.12315586
65	0xbe94d833	-0.29071197
66	0xbdb9a59d	-0.09064791
67	0x3e5282dd	0.20557733
68	0xbe329b42	-0.17442039
69	0xbd543c98	-0.0518156
70	0x3d7b06db	0.061285835
71	0x3e1ac8f0	0.15115714
72	0x3e19736c	0.14985436
73	0x3cfcf952	0.030880604
74	0x3e3283c2	0.17433074
75	0xbdf70533	-0.120615385
76	0x3c9e8e3c	0.019354932
77	0xbe536326	-0.20643291
78	0xbdacfb7a	-0.08446403
79	0xbcc5b5cf	-0.024134545
80	0xbd08743c	-0.033313975
81	0x3c4d95c6	0.012547916
82	0xbe30ec99	-0.17277755
83	0x3e0f3a7f	0.13987158
84	0x3e01ee0d	0.12688465
85	0x3cfcb035	0.03084574
86	0xbdbb2fd4	-0.09139982
87	0x3de4ad71	0.11165894
88	0xbdef6d7c	-0.11690804
89	0x3e69e768	0.2284218
90	0x3e1cb9ac	0.15305203
91	0xbd398e2f	-0.045301612
92	0xbe860a87	-0.26179907
93	0x3db97eff	0.09057426
94	0x3e8edfdc	0.27905166
95	0x3bc6ee29	0.0060708714
96	0xbd939a41	-0.07207156
97	0x3bd5d6f1	0.006525867
98	0xbe117052	-0.14203003
99	0x3e3796e4	0.17928654
100	0x3d733973	0.05938096
101	0x3e577a17	0.21042667
102	0xbdcd5a9b	-0.10027047
103	0x3e41f14d	0.18939705
104	0x3e646480	0.22303963
105	0xbd4da70e	-0.050208144
106	0x3e175cc3	0.1478148
107	0x3ddbd44b	0.10733851
108	0x3e69bdbd	0.22826286
109	0xbe80d79b	-0.25164494
110	0xbd575c2b	-0.052578133
111	0x3d044bab	0.032298725
112	0x3d351998	0.04421386
113	0x3d0c2598	0.03421554
114	0x3e2c540c	0.16828936
115	0xbebfb9d6	-0.3744647
116	0xbdc898f5	-0.09794799
117	0xbda3fe09	-0.08007438
118	0x3dd182ba	0.10230012
119	0x3e68159d	0.22664495
120	0x3d813bcd	0.06310234
121	0x3de454ae	0.11148964
122	0xbe084083	-0.1330586
123	0x3ded9d87	0.116023116
124	0x3ca012df	0.019540248
125	0xbe52649a	-0.20546189
126	0x3d945999	0.07243652
127	0xbc019c97	-0.007910869
128	0x3dbe88dd	0.09303448
129	0xbe122918	-0.14273489
130	0x3e24f993	0.1611083
131	0x3d0e4615	0.034734804
132	0xbc93acd7	-0.018026752
133	0x3ba3cc05	0.0049986863
134	0x3e0a094c	0.13480109
135	0xbdde37a7	-0.108504586
136	0xbe5baae6	-0.21451911
137	0xbd9d137d	-0.07669733
138	0x3e3534a7	0.17695867
139	0x3c785696	0.015157362
140	0xbc4ec837	-0.012620977
141	0xbe56390f	-0.20920204
142	0x3d16318a	0.036668338
143	0x3e633225	0.22187097
144	0xbe2d3b88	-0.1691724
145	0x3dca73f6	0.09885399
146	0x3d43c302	0.047793396
147	0xbe0a9613	-0.13533811
148	0xbc882182	-0.01661754
149	0xbe315016	-0.17315707
150	0x3e5ff750	0.21871686
151	0x3d55ef06	0.052229904
152	0x3d76f377	0.06029078
153	0x3d9d93d8	0.076942146
154	0x3e2c0b26	0.16801128
155	0x3e0050a4	0.12530762
156	0x3e93fda2	0.28904444
157	0xbde64237	-0.11243098
158	0xbb41f7ad	-0.002959709
159	0xbe395f31	-0.18102719
160	0x3dbbffe8	0.091796696
161	0xbe961d42	-0.29319197
162	0x3e2d3194	0.16913444
163	0xbe40df05	-0.18835075
164	0xbce58136	-0.028015714
165	0x3d00fc42	0.03149057
166	0xbe431063	-0.1904922
167	0x3e418a7f	0.18900488
168	0x3b9969b8	0.004681792
169	0xbe54d2a4	-0.20783478
170	0xbe2798ae	-0.16366836
171	0xbe1dc095	-0.15405495
172	0xbc82fc75	-0.015989522
173	0x3ddda36e	0.10822187
174	0xbe33459b	-0.17507021
175	0xbdc428b4	-0.09578076
176	0x3e34f08e	0.1766989
177	0xbe581a48	-0.21103776
178	0xbe1e7d62	-0.15477517
179	0x3d8f9bdc	0.0701215
180	0xbe6d8fbf	-0.23199366
181	0xbdc4b063	-0.096039556
182	0xbded4847	-0.115860514
183	0xbe033ec5	-0.12816913
184	0xbe046a99	-0.12931289
185	0x3d4b4027	0.049621727
186	0xbdf592a8	-0.11990863
187	0xbb0cbb27	-0.0021473856
188	0x3e97f4f4	0.29679072
189	0xbe49d62b	-0.19710605
190	0x3ce4a11a	0.02790885
191	0xbe4645d8	-0.19362581
192	0x3eb2ad50	0.34897852
193	0xbd8e736a	-0.06955607
194	0x3e03b237	0.12860952
195	0x3e66f971	0.22556092
196	0xbd988993	-0.07448115
197	0x3e1fb02f	0.15594552
198	0x3d4008f3	0.046883535
199	0xbe489b64	-0.19590527
200	0xbdccd86a	-0.10002215
201	0x3e609aa5	0.21933992
202	0x3d8b6fc4	0.06808427
203	0x3d8fdd87	0.07024675
204	0x3d1e54a3	0.038654935
205	0x3da2c597	0.079478435
206	0xbd2a877a	-0.041633107
207	0x3e8dd873	0.277042
208	0x3e73b26d	0.23798533
209	0xbd842d3d	-0.06453941
210	0x3e4313d4	0.19050533
211	0xbe20edf0	-0.15715766
212	0x3c4cfab9	0.012510949
213	0xbc83f209	-0.016106622
214	0xbe06c0d5	-0.13159497
215	0xbe9cd049	-0.3062766
216	0xbdff5398	-0.12467116
217	0xbea2cd20	-0.31797123
218	0xbe3e2ab5	-0.18570979
219	0xbc9e83fd	-0.019350046
220	0x3e342432	0.17591932
221	0xbe50e6c0	-0.20400524
222	0xbe44a581	-0.1920376
223	0x3d9b54cb	0.07584532
224	0x3ce059d0	0.027386576
225	0xbccdae4c	-0.025107525
226	0x3e12b9b7	0.14328657
227	0xbe69fa28	-0.22849333
228	0x3e84060f	0.25785872
229	0xbe250117	-0.16113697
230	0xbd53f7a8	-0.051749855
231	0xbe67c408	-0.22633374
232	0xbd51c8b8	-0.05121681
233	0xbe66035d	-0.2246222
234	0x3dcf4e0b	0.101223074
235	0xbdb65d11	-0.0890447
236	0x3db90876	0.09034817
237	0x3e21f9a9	0.15817894
238	0xbd467dd1	-0.04845983
239	0xbe81027e	-0.25197214
240	0xbe834753	-0.25640354
241	0x3ddbaa5e	0.10725854
242	0xbe7fe51f	-0.24989747
243	0x3e366958	0.17813623
244	0xbe14d3f9	-0.14533986
245	0x3d841d43	0.06450894
246	0x3e31d492	0.17366245
247	0xbdc65eb6	-0.096860334
248	0x3e0bfaef	0.13669942
249	0xbdcdc028	-0.100464165
250	0x3e9f1e8c	0.31077993
251	0xbe9cc6c0	-0.30620384
252	0xbc909af9	-0.017652022
253	0x3cdae340	0.02671969
254	0x3df208de	0.118180975
255	0xbe0eb3c3	-0.13935761

linear2.bias f4 [10]
0	0xbd781112	-0.060563155
1	0x3e226ff2	0.15863016
2	0x3a03aebf	0.00050232926
3	0xbd413c92	-0.047176905
4	0xbcde13e9	-0.027109103
5	0x3e8aded2	0.27123123
6	0x3d028a72	0.031870313
7	0x3db1f9e7	0.08690243
8	0xbec8bdbe	-0.39207262
9	0xbcad19a8	-0.021130398
