practical/1/mnist-with-hidden-layer.pth (torch, 409360 bytes, 4 tensors)

linear1.weight f4 [128, 784]
000000 48 1d f9 3c fb f5 06 bd 1c 13 15 3c 35 d3 9d 3c
       0.03040947 -0.03294943 0.009098794 0.01926575
000010 f3 5b d8 3c 8f bd 0a 3d 57 e9 b4 3c 4c 87 b5 3c
       0.026411032 0.033872183 0.022083921 0.022159241
000020 dc a0 fd 3a fe 10 07 3d 4a fc 74 3a 81 19 63 3b
       0.0019350308 0.03297519 0.00093454553 0.0034652653
000030 f4 12 da bc 3d 64 cb bb d1 c3 d5 bc f3 9a d8 bc
       -0.026620366 -0.0062070177 -0.02609435 -0.026441073
000040 b3 5f ed 3c a5 73 8a bb 96 cd 07 3d e4 af 0f 3d
       0.028976297 -0.0042252117 0.033155046 0.03507985
000050 b7 6d af b9 ee d0 27 bc f8 15 65 3c 60 e4 a2 3c
       -0.00033460345 -0.010242684 0.013982289 0.019884288
000060 2e 70 9f bb 35 10 ed 3c 93 7d a8 bc 74 ce 07 bd
       -0.004865668 0.028938392 -0.020567691 -0.033155873
000070 7c 25 11 bc 45 9e ba bc e8 11 e3 bc 5a af 88 3c
       -0.008859035 -0.022780547 -0.0277185 0.016685177
000080 06 34 77 3c 11 85 dd bc 8a 39 a4 3b 8a 3d 80 3c
       0.015088087 -0.02704099 0.005011742 0.015654344
000090 d2 d6 b0 bb 95 21 81 bc 2a b3 c5 3c 9c 5c 8f 3c
       -0.0053967023 -0.015763083 0.024133284 0.017500214
0000a0 2e ea 27 3c c2 c0 8c bc 68 ca c4 3b 35 76 80 3c
       0.010248704 -0.017181758 0.006005574 0.015681366
0000b0 e0 25 f4 bc 59 37 ff bc 9b f1 a9 bc 03 8f 12 bd
       -0.029803216 -0.031154322 -0.02074509 -0.035780918
0000c0 44 9f 60 bc f2 9c 61 3c c7 bd cb 3b 40 e0 cf bc
       -0.013709847 0.013770329 0.0062176916 -0.025375485
0000d0 31 b4 f3 3c 40 d2 85 3c 9c 95 42 3c b7 b5 3d 39
       0.029749008 0.016335607 0.01187649 0.00018092139
0000e0 65 7e e0 3c 3e f0 ca bc a6 28 a8 3c e8 95 7f bc
       0.02740402 -0.02477276 0.020527195 -0.015599705
0000f0 a1 f4 37 3b 7a 3b 4a bc 15 0d 90 bb 60 0e 99 bc
       0.0028069394 -0.012343282 -0.0043960907 -0.018683612
000100 ab c0 b8 3c e3 af 07 3c 25 57 ba 39 4b 0a 63 3b
       0.022552809 0.008281681 0.00035541612 0.0034643586
000110 6a ce 11 3b 56 4a 7b bc de ac 26 bc d6 6e 98 3b
       0.0022248277 -0.015337547 -0.010173051 0.0046518845
000120 f2 c0 93 3b 70 17 4a bc 7d f9 96 bc 6e 96 da bc
       0.004509085 -0.0123346895 -0.018429512 -0.026683059
000130 9e 35 e4 3c aa d0 c5 3c 28 f7 dd 3c 75 ae 50 3b
       0.027857598 0.02414735 0.027095392 0.0031842266
000140 3f 6a f6 3a 89 06 72 bc cc 92 dc 3c aa 01 b2 3c
       0.0018799974 -0.014772066 0.026925467 0.02172931
000150 38 31 6a 3b 9c 9f ff 3b 66 48 2c bc 0e c6 63 3c
       0.0035734903 0.0078010093 -0.010515308 0.0139022
000160 e8 3c 1e 3c 07 05 0b bc 11 6e f5 bc 36 0c 5f bc
       0.009658076 -0.008485085 -0.02995971 -0.013613751
000170 50 cc fd 3c ba 7f 88 bc 1d b1 da 3c 42 9f fe bc
       0.030981213 -0.016662467 0.026695782 -0.0310818
000180 6d 6f 99 bb ab 2e 98 bb 8c 6c 69 3c 11 56 cc 3c
       -0.0046824724 -0.004644235 0.014247071 0.024943383
000190 90 92 2f bc e9 a4 2c bd 33 8f 8a 3c a7 2e 56 bc
       -0.010716096 -0.042149458 0.016913986 -0.013072646
0001a0 5e 21 9c bc ae f0 18 bd 21 8f d6 3b 72 f1 6f 3c
       -0.01905888 -0.037338905 0.006547824 0.014644967
0001b0 c1 88 cc 3c f0 1d a7 bc 8b f8 ef bc 25 ed af bc
       0.024967553 -0.020400017 -0.02929332 -0.021475384
0001c0 ec 63 aa 3c da 2a d2 3c e7 e1 a5 3c 8f 52 5c 3c
       0.0207996 0.025655199 0.02024932 0.013447418
0001d0 ac 3b b3 3b 72 d3 93 bc 8c 9c 8b bc e3 c7 db 3c
       0.00546976 -0.01804516 -0.01704242 0.026828712
0001e0 dd ef de bc 97 9f ad 3c 99 c6 1c 3c b3 a3 29 3c
       -0.027213985 0.021194262 0.009568834 0.01035397
0001f0 5e f5 3b bc c1 2d 82 3c 65 dc f3 3c 09 f4 6f bc
       -0.011472074 0.015890958 0.029768178 -0.014645585
000200 fe e7 73 bc 52 12 f6 bc bf 9b 24 bd e8 21 19 3c
       -0.014886854 -0.030038033 -0.040187594 0.009346463
000210 79 b4 2e bd 05 c7 1e 3c d2 a5 08 3c e4 b7 15 3a
       -0.04265258 0.009691005 0.008340316 0.0005711301
000220 dd 35 49 3b 6b e1 02 3d c3 87 99 3c e8 aa 1b bb
       0.003070227 0.031953257 0.018741494 -0.002375299
000230 07 b4 ac bc 93 8a 0a bb b9 2d d3 3a a3 75 c2 3a
       -0.021081937 -0.0021139726 0.0016111649 0.0014836084
000240 4d b8 0b 3d 71 66 f5 3c 81 0e 12 3d 05 b0 02 3d
       0.03411131 0.029956074 0.035658363 0.031906147
000250 3b 93 0c 3c 1b 4f 9d 3c 2c 0b 5d bb 9c 09 5b 3d
       0.008580024 0.01920276 -0.0033728583 0.05347596
000260 8e 3a 3c 3d 32 bc 8a 3c 8a ef 9c 3c 5d e7 57 3d
       0.04595428 0.016935442 0.01915719 0.05271088
000270 b0 df 72 3d 58 f9 39 3d e7 05 02 bd f5 26 95 3c
       0.059295356 0.04540381 -0.03174391 0.018207053
000280 70 3f 8b 3b be e4 43 3c 9e 03 1a 3c ad 8c 1b bc
       0.0042495057 0.011956392 0.0094002765 -0.009493989
000290 8a b9 a4 bb 62 16 b6 bc ea 2f 83 bb 09 ed 0d bd
       -0.005027001 -0.02222747 -0.0040035145 -0.034649882
0002a0 37 28 3a bc 72 cb 0c 3a 40 fe 09 bd 78 d7 59 ba
       -0.011362127 0.0005370892 -0.033689737 -0.00083100004
0002b0 26 5b 00 bd d6 a0 89 bc 77 75 e1 3c 17 85 c8 bc
       -0.031336926 -0.016800325 0.027521832 -0.024477525
0002c0 b1 5c c9 bc 92 0c 9c 3a 72 64 20 3b 0c 31 18 3d
       -0.024580332 0.0011905602 0.0024473933 0.03715615
0002d0 5d 2c 58 3d 08 94 88 3c 09 04 ac 3c 3f 9b a8 3d
       0.052776683 0.01667215 0.020998018 0.08232736
0002e0 2e 79 11 3d 68 a0 87 3d d5 47 ed 3c ae 21 9c bc
       0.035515957 0.06622392 0.028964916 -0.019059028
0002f0 80 29 1e 3d 45 6e a0 bc 02 53 7b bc cc e3 9e bc
       0.038613796 -0.01958383 -0.015339615 -0.019395731
000300 7d 3a c7 bc ea 77 79 3c ad 5f aa bc e6 68 61 3c
       -0.024319882 0.015226344 -0.020797575 0.01375792
000310 70 8e 41 bc 91 ad c4 3c 80 e0 37 bc 54 fb b3 3b
       -0.011813745 0.024008544 -0.011222959 0.005492607
000320 77 21 cb bb 47 4b c6 3c 6e 7f f8 bc 51 30 13 3b
       -0.0061990577 0.024205817 -0.0303342 0.0022459219
000330 fa e5 f1 bc 4c 68 c3 3c 7a b1 eb 3c 8d a5 eb 3c
       -0.029528607 0.023853444 0.02877115 0.028765464
000340 7e 53 2f 3d 91 4e 55 3d 39 34 55 3d 09 5f 6b 3d
       0.042804234 0.05207688 0.052051757 0.05746368
000350 2b a5 34 3d 57 d9 cc 3c 3a f9 41 3c 9d 01 e9 3b
       0.04410283 0.02500598 0.011839205 0.007110788
000360 1b 1a 91 3c d2 50 17 3c 10 6e 9d bc bf c0 db bc
       0.017712643 0.009235578 -0.019217521 -0.026825307
000370 01 ab 96 3c e1 41 10 bd 97 53 b6 ba 1d 37 d9 3c
       0.018392088 -0.035219077 -0.001391041 0.026515538
000380 4f 34 2d 3b 9e f0 19 ba b5 15 00 bd 40 f9 df 3c
       0.0026428883 -0.00058723416 -0.0312707 0.027340531
000390 03 2b 2c bb 53 60 e2 3a 0f 11 ac 3c 69 ef 72 3c
       -0.0026270754 0.0017271138 0.021004228 0.014827588
0003a0 8a 00 54 bc 7e c9 f2 bc 7b b4 a3 3c 81 99 52 3c
       -0.012939582 -0.029637095 0.01998352 0.012853981
0003b0 be f1 8b b6 ff 31 ef 3c b4 af 30 3d de 45 46 3d
       -4.1706653e-06 0.029198645 0.043136314 0.048406474
0003c0 7a 10 69 3d 92 31 15 3d 01 c8 23 3d 30 ed 94 3c
       0.05690048 0.036424227 0.03998566 0.018179506
0003d0 45 45 07 3c cf 0e 16 3a 9d 68 e1 bb fb 5b dc bc
       0.008256261 0.00057242526 -0.006878926 -0.026899328
0003e0 cc b4 50 bc 91 64 c7 bc da cd 03 3d 26 d1 f6 3c
       -0.012738418 -0.024339946 0.032178737 0.030129027
0003f0 48 dc e6 bc e4 e0 0b 3d f7 d1 fc 3c fb 1d 04 3d
       -0.02818121 0.03415002 0.030861838 0.032255154

linear1.bias f4 [128]
000000 d8 51 94 bd cc 72 81 bc 49 57 6f bb d3 32 86 bd
       -0.07242173 -0.01580181 -0.0036520532 -0.06552663
000010 f7 f6 59 3d d5 f5 46 bd 53 68 7f 3d 10 af f5 bc
       0.05321404 -0.048574287 0.06235535 -0.029990703
000020 8c 70 cc bc 72 b1 97 3c 8d 1e 5f bc aa 9e 44 3c
       -0.02495601 0.01851723 -0.013618124 0.012000719
000030 a2 2e 15 3d 66 ec 31 3d d3 11 27 bc d8 0f 25 3c
       0.036421426 0.043438338 -0.010197121 0.010074578
000040 a2 b3 06 bb 38 41 a2 bd eb 55 2c bd f4 70 04 3d
       -0.0020553847 -0.07922596 -0.042074125 0.032334283
000050 3f b3 8f 3d 14 bc 30 3d ee ce 6a 3d 3e 73 ee bb
       0.0701661 0.043148115 0.05732625 -0.0072769215
000060 09 3c fd bc a8 44 bf b9 16 83 03 bd 16 69 bc bc
       -0.030912416 -0.00036481512 -0.032107435 -0.022999328
000070 13 de eb 3c 70 ed 6b bd c1 91 1d 3d b6 63 08 bc
       0.028792417 -0.057599485 0.03846908 -0.008324554
000080 1b 8e 16 3c 6f d9 a5 3d 3f 2f f9 bc 4d bf 1b 3d
       0.009189154 0.08098113 -0.030418037 0.038024236
000090 15 55 15 bd d7 8b 3e 3d 5b 9b a6 bc df 58 18 3b
       -0.036458094 0.04652008 -0.020337751 0.002324633
0000a0 7b 51 85 3c 8b 4e 79 3c 2e 8d ad 3d 27 1c 9e 3c
       0.016274204 0.01521648 0.084741935 0.019300533
0000b0 ad 71 56 3d 8b c3 c7 3c 00 7e 93 3b 18 35 a4 bd
       0.052354503 0.024385234 0.0045011044 -0.08017939
0000c0 39 03 37 3a 60 76 e2 ba 93 12 8a 3c c8 90 a6 bc
       0.0006981376 -0.001727771 0.01685456 -0.020332709
0000d0 ee 58 38 bc a6 28 28 3d bc 01 49 3d f8 cd 8b bc
       -0.011251671 0.04105439 0.04907392 -0.017065987
0000e0 b4 be e0 bc d3 51 a9 ba fa 93 3e bd e3 c3 d6 3b
       -0.027434684 -0.0012918062 -0.04652784 0.0065541132
0000f0 2c f6 6f bc 30 d9 d3 bc 1e 0b 6e 3b 75 ff 10 bb
       -0.014646094 -0.025860399 0.0036322544 -0.002212492
000100 a9 ae 86 bc 13 a7 85 bd 25 41 4d bd 41 56 5c 3a
       -0.016440706 -0.065260075 -0.050110955 0.0008405187
000110 60 ff 20 bd ea 72 3c bd 16 47 90 bd 94 7f 91 bc
       -0.039306045 -0.046008028 -0.070448086 -0.01776103
000120 2a 40 bf bc 42 c8 88 bc a8 1d 8c bc 3a 88 1a 3b
       -0.023346025 -0.016697053 -0.017103985 0.0023579733
000130 13 3c e3 bc 37 76 b1 bd 17 ad 92 3d bb df b0 3d
       -0.027738607 -0.08665126 0.071619205 0.08636423
000140 85 53 64 bd 53 87 20 bd a6 41 a7 bc 61 d4 b7 bc
       -0.055743713 -0.039191555 -0.020417046 -0.022440137
000150 f2 2f 07 3d 11 65 a7 3b 54 1f 23 3d a3 cf 69 3d
       0.03300471 0.0051084836 0.0398248 0.057082783
000160 47 ed 06 3d 35 23 b6 3c d7 6d 4b 3b 2e c3 ee 3b
       0.03294113 0.022233585 0.0031040811 0.007286451
000170 25 ae 74 3d db a4 4d 3c 51 0a 08 bc 46 11 0f 3c
       0.05973639 0.012551512 -0.008303241 0.008732146
000180 2b a0 59 3d ed 2b d2 b9 85 33 1e 3d 15 19 52 bc
       0.053131264 -0.0004008705 0.03862335 -0.012823363
000190 55 71 bc 3c 27 13 a3 3d cb e7 0f 3d 3a 0d ab 3c
       0.02300326 0.079626374 0.035133164 0.02088033
0001a0 96 64 8f b9 14 84 8b 3c 25 0d c6 3c 6d e2 8d 3b
       -0.00027350028 0.017030753 0.02417619 0.0043299706
0001b0 a5 0a 14 3e 52 57 b5 3c 52 f5 e0 3c 20 41 33 3d
       0.14457186 0.022136364 0.027460728 0.04376328
0001c0 3b b2 3e 3d 79 b4 ed bc 40 a2 e9 3c ce 7d 91 3d
       0.046556693 -0.02901672 0.02851975 0.071040735
0001d0 7e 13 97 bd 98 f6 9a 3c 5e 07 1e bd d9 fe 0e 3c
       -0.07376765 0.018916413 -0.038581245 0.008727753
0001e0 33 07 36 3c 6f 35 e0 3b c8 72 2c bd e4 96 07 bd
       0.011110115 0.0068423073 -0.04210165 -0.033102885
0001f0 ef c5 16 3d 21 78 1b 3d 5d dd c7 bb 1f 9c 0a bd
       0.036809858 0.03795636 -0.0060993866 -0.033840295

linear2.weight f4 [10, 128]
000000 44 54 b3 3d e3 d8 5d 3d 87 22 8f bd 56 b1 ec 3d
       0.08756307 0.054161917 -0.069890074 0.11557262
000010 99 dd 88 be a8 27 88 3e 6c 34 19 3d 33 8d b8 3c
       -0.26731566 0.26592755 0.03740351 0.022528267
000020 ff fd 37 3e 88 ac ed 3d a7 77 85 3d 9c 4e a5 be
       0.17967986 0.11605173 0.065169625 -0.32286537
000030 28 d2 ef bd 74 97 ae 3d fb ee 07 bd b8 57 12 bd
       -0.11710006 0.08524981 -0.033186894 -0.035728186
000040 ee 1d 58 bd 4e d4 86 bd d9 f1 41 3e 2d a8 3b 3d
       -0.05276292 -0.06583463 0.18939914 0.04581468
000050 b9 03 a4 bd 0f 02 f8 bd 4d 62 3f 3d 41 e9 28 be
       -0.080085225 -0.12109768 0.046724606 -0.1649523
000060 7f 1c 99 bd 66 dc 75 bd 37 0c d0 bc 4d 00 79 bc
       -0.07476138 -0.06002464 -0.02539645 -0.015197826
000070 1b 56 ba bd ec a0 1f 3e 26 6f 8d be 8a bd 53 3e
       -0.090984546 0.1558873 -0.27623862 0.20677772
000080 6e d6 2c 3b 2a 87 89 be 41 1c 25 bd b0 6c 98 bd
       0.0026372927 -0.26860934 -0.04031015 -0.074426055
000090 8a 7b 84 bd eb 8d 4f 3e 9a bf 22 be 91 43 fd 3c
       -0.06468876 0.20268981 -0.15893403 0.030916007
0000a0 ec 7d 26 3e 30 b7 ad 3d 1e e0 0c be b2 e3 30 3e
       0.16258973 0.08482206 -0.13757369 0.17274359
0000b0 0b 19 f5 bd 35 0e 2c 3e 98 e3 95 bd a0 bf 13 be
       -0.11967667 0.16802295 -0.07318801 -0.14428568
0000c0 88 9a 0e bd 42 ba b0 3d 2c 16 a9 bd 4c db 2f be
       -0.03481534 0.08629276 -0.08256182 -0.17173499
0000d0 a5 c4 6f 3e 65 76 cd bd 07 94 d5 3c 9d 25 0f be
       0.23414858 -0.100323476 0.026071562 -0.13979192
0000e0 16 ae 80 bd dd 20 42 3e e3 eb 5e bb 84 08 a4 3d
       -0.06283204 0.18957849 -0.003401511 0.08009437
0000f0 03 9b 5d 3e 1c c8 1a 3d a1 3e b7 bd 5b b9 bd 3d
       0.21641164 0.037788495 -0.089474924 0.092638694
000100 88 32 60 be 78 d7 8f 3d c4 50 22 be 19 37 89 bd
       -0.21894276 0.07023519 -0.15851122 -0.06699962
000110 1d 4e d0 3d d1 4e 93 3e 18 ea f6 bd 13 b6 19 3c
       0.10171149 0.2877107 -0.120563686 0.009381789
000120 ec fd 25 be a6 4f 49 be 19 d2 4b 3e 75 33 83 3b
       -0.16210145 -0.1965929 0.19904365 0.004003937
000130 9c e1 67 be 70 36 56 3e 05 e1 0d 3e 1e 74 87 bd
       -0.22644657 0.20919204 0.1385537 -0.066139445
000140 e6 1f ab 3d 5e c9 13 3e 41 56 1d 3e c3 58 8b bd
       0.083556935 0.14432284 0.15364935 -0.06804039
000150 09 f0 b5 bd bf 94 18 3e e0 b4 21 be 70 c5 26 3e
       -0.08883674 0.14900492 -0.15791655 0.16286254
000160 31 03 84 be cc 7a 0e 3e 41 9f 95 bc 2e d6 2d 3e
       -0.25783685 0.13914031 -0.018264415 0.16976234
000170 89 f9 65 be 5d ff 35 3d b1 7e 3e bc a0 ea fe 3d
       -0.22458471 0.044432987 -0.011626885 0.12447095
000180 c6 f8 21 3d 9d fc 12 3e 12 ba c6 bd 63 52 4b 3e
       0.03954389 0.14354177 -0.09703459 0.19855647
000190 a7 0e 8a 3d 61 c4 3b bc 60 08 2e bd a2 cf 71 3e
       0.06741076 -0.011460395 -0.042488456 0.23614362
0001a0 60 b5 f0 3d ff a8 79 3e 72 97 10 be 27 2c 1d be
       0.117533445 0.24380873 -0.14120272 -0.15348874
0001b0 5f 22 b8 bd 85 94 c5 3d ca 6e 8b bd 53 b5 c2 3c
       -0.08990931 0.096474685 -0.06808241 0.023768103
0001c0 aa ce f6 bd cf a4 1d 3e 2a 61 19 be d1 e7 ce bd
       -0.12051137 0.153949 -0.14978471 -0.10102809
0001d0 ae 44 ac bd 11 66 17 3e 0c 48 1e 3e 3a 41 ce bd
       -0.08411537 0.14785029 0.15457171 -0.10071035
0001e0 f7 8f 2a 3e ad 9e 3a bd bd 3c 23 3e 90 8d 29 be
       0.1665648 -0.04556148 0.15941139 -0.16557908
0001f0 38 9f 5a 3e df 46 8b 3d 1d 46 1d be cd 93 26 3e
       0.213498 0.06800627 -0.15358777 0.16267319
000200 df 98 97 3d 5d 07 25 3d a7 36 88 3b 4b 54 22 be
       0.07402205 0.040290225 0.0041569057 -0.15852468
000210 19 f2 01 3e cc b0 97 bc 2d 0d da 3d c5 88 42 be
       0.12690009 -0.01851692 0.10647044 -0.18997486
000220 c5 ef 33 bd ec a9 1f 3d e8 a8 5e 3d 8e ef 7c 3d
       -0.043929834 0.03898041 0.0543603 0.061751895
000230 d9 ed a6 bd c5 05 49 3e c9 a0 b1 3b 5f 12 3d 3e
       -0.081508346 0.19631107 0.0054207784 0.1846404
000240 03 98 32 be 3b ab 25 be 9b 9a 52 be 3f 28 c6 3d
       -0.174408 -0.161786 -0.2056679 0.09675645
000250 ad 83 a2 bc c8 64 9e bd ad 1d 7c 3e 1c ca 43 3e
       -0.019838179 -0.07734066 0.24620695 0.19120067
000260 e7 88 f0 bb 8d ee 40 be b6 1f 59 be 84 53 e2 bd
       -0.007340539 -0.18841 -0.21203503 -0.110510856
000270 38 96 ea bd 28 ad 6e bd 8c 97 25 3e d7 2f f8 bd
       -0.11454433 -0.058270603 0.16171092 -0.121185
000280 98 ad 58 3d 61 2f 57 3e b8 f2 5f 3e 3d 55 25 be
       0.052899927 0.21014167 0.21869934 -0.16145797
000290 b5 fa a7 3b 72 34 06 be 42 d5 8d 3e 34 84 55 be
       0.005126322 -0.13105944 0.27701765 -0.20851213
0002a0 03 81 c9 bd 42 85 17 bd 53 3e 48 3e 21 39 c2 bd
       -0.0983906 -0.03699232 0.19555025 -0.09483553
0002b0 4c e0 90 3b 3e b5 f3 bd 05 f2 b9 bd c2 6d 2f 3e
       0.0044212695 -0.118998036 -0.09079365 0.17131713
0002c0 23 91 1a 3e ad b6 43 bd e1 cc 1f 3e 90 a9 9f bd
       0.15094428 -0.047781635 0.15605499 -0.07796013
0002d0 01 6a 72 be 1a c5 63 3e fc 58 35 3e 85 ef 07 3e
       -0.2367325 0.22243157 0.17709726 0.13274963
0002e0 37 53 28 bd cc 05 03 be 50 7c 99 3d c5 d3 ac bc
       -0.041094985 -0.1279518 0.07494414 -0.021097073
0002f0 b9 75 3d be c1 d9 76 be 42 61 00 3e d4 ae 20 be
       -0.18501939 -0.24106504 0.12537101 -0.15691692
000300 86 bb c7 3d b9 9e 13 be 03 40 75 3e 8e 7d 4b 3e
       0.09752564 -0.14416017 0.239502 0.19872114
000310 8d c4 41 3e 22 11 09 bd 63 0c 11 3d d0 9d 30 3e
       0.18922634 -0.033463605 0.035412204 0.172477
000320 95 3c bb b9 29 e2 9e 3e cb ab b0 3d e4 28 12 bd
       -0.00035712557 0.31031922 0.08626517 -0.035683528
000330 f4 9a d7 3c 24 6d 81 be 8d 45 e7 bd 8c 21 a2 bc
       0.026319005 -0.2527858 -0.11292563 -0.019791387
000340 3f 63 62 3e be 03 4c be 24 9c 15 be 68 35 1a be
       0.22108172 -0.19923303 -0.14610344 -0.15059435
000350 43 11 dc 3d d2 48 59 3e ee fb 91 3e 21 81 42 3e
       0.1074548 0.21219185 0.2851252 0.18994571
000360 d0 91 68 3e bf e0 69 3d 4f 70 e3 3d e8 fe bf bc
       0.22711873 0.0570991 0.111054055 -0.023436978
000370 84 f1 71 3e 10 18 43 3e 8f 30 02 3e 02 83 58 bc
       0.23627287 0.19052148 0.12713836 -0.013214828
000380 92 51 8c 3c 56 d7 ab bc 5a 4d 51 3e e4 36 85 bd
       0.01712874 -0.020976704 0.20439664 -0.0650461
000390 78 35 43 3d 59 0c 13 3d 58 3b 05 3e 22 e4 5a 3d
       0.047658414 0.035900448 0.13010919 0.05344022
0003a0 af 0b 10 be 55 aa 84 be 8a cc 05 bd a7 a4 eb 3d
       -0.14066957 -0.25911203 -0.032665767 0.11506014
0003b0 38 45 4b 3e d3 0e eb 3c 96 5a 03 3e 39 20 be 3d
       0.19850624 0.028693592 0.12827525 0.0928349
0003c0 ce 09 b1 3d f4 3a 1b be a6 18 70 be 92 36 97 3d
       0.08644448 -0.15159208 -0.23446903 0.07383455
0003d0 4b c3 31 3e cc 44 8b bd 1c e5 36 be 46 ae 32 bc
       0.17359655 -0.06800231 -0.17860836 -0.010905808
0003e0 10 27 51 bd ec 16 0e 3e 8b f3 99 bd fc 13 00 3a
       -0.051062644 0.13875932 -0.07517155 0.00048857904
0003f0 08 5a ed bd 78 35 c0 bd ea 09 18 be 5f 0d 17 be
       -0.11589438 -0.09385198 -0.14847532 -0.14751194

linear2.bias f4 [10]
000000 4a be 80 bd 3e f1 70 3d 0a b3 6f 3d c5 6c 36 3c
       -0.06286295 0.058823816 0.058520354 0.011134331
000010 d0 90 22 bd 65 2b 8e 3e 65 f8 9b 3b ce c2 31 3e
       -0.039688885 0.27767482 0.0047598355 0.17359468
000020 d7 1c 78 be a2 15 c0 3b
       -0.24229752 0.005861954
