practical/1/mnist-hidden-act-layer.pth (torch, 409352 bytes, 4 tensors)

linear1.weight f4 [128, 784]
000000 1e 8c e1 3c 9c 3d 0d 3d 5c 0e 01 3d dc 23 77 bb
       0.027532633 0.034482583 0.031507835 -0.0037710583
000010 01 34 5b 3b 6c 57 8f bc 00 64 82 bb 11 a0 c9 bc
       0.0033447745 -0.01749774 -0.003979206 -0.024612458
000020 cc dd 83 3c ae 30 e0 3c fc 34 35 3c a5 0e af bc
       0.016096972 0.027366962 0.011059996 -0.021369288
000030 6a 47 be bb 20 c7 4e bc 8d 13 0c bd a9 82 23 ba
       -0.005806853 -0.012620717 -0.034198333 -0.00062374264
000040 81 d5 c5 bc 3a a9 b2 bc 4b 3f 07 3d 93 01 af bb
       -0.024149658 -0.02180921 0.033019345 -0.005340764
000050 17 af 47 bc 2e bd a7 3b ca 22 55 3c 87 9d 98 bc
       -0.012187741 0.0051189875 0.013008783 -0.018629802
000060 a7 8f ac bc 01 bc cb 3c 00 e8 a0 3a 00 a9 88 3b
       -0.021064593 0.02486992 0.0012276173 0.004170537
000070 00 de 9e 3b 45 62 cf bc 9c e6 a3 bb 9a e5 e1 3c
       0.004848242 -0.025315413 -0.005001856 0.027575303
000080 dd 98 8e 3c 43 ed dc 3c 64 5f f9 bc b6 cb ca 3c
       0.017406875 0.026968604 -0.030440994 0.02475534
000090 c4 f6 f9 bc 86 0c 10 bc c1 d1 b9 bc de 6c 41 3b
       -0.030513175 -0.008792048 -0.022683026 0.0029514353
0000a0 a2 0e 04 bd 16 d6 af bc 4e 8f 9a bb 43 15 05 bd
       -0.032240517 -0.021464389 -0.0047167903 -0.03249098
0000b0 4e bd d5 3c 7a 41 61 3c a2 0b e4 3b 87 2f db bb
       0.026091244 0.013748521 0.0069593946 -0.0066890153
0000c0 d6 2c 88 3c 94 08 0e bd 3c 3b 03 bc 6e 03 ff bc
       0.016622942 -0.03467615 -0.008009728 -0.031129565
0000d0 fc f9 4c 3c fc d4 e3 bc b3 44 65 bc b0 5a 91 3c
       0.012510773 -0.02781152 -0.01399343 0.017743438
0000e0 81 40 74 3b e5 45 97 3b 9e bf 00 3d 23 ef 91 bc
       0.0037269893 0.0046164864 0.03143274 -0.017814225
0000f0 3a f9 a3 bc 69 ad 0c bc 9d bd 7f bc a0 9e d3 bc
       -0.020016301 -0.008586266 -0.015609172 -0.025832474
000100 3f eb ac 3c 1c dc 07 bd bc be 20 3c 8b 00 1d 3b
       0.021108268 -0.033168897 0.0098111 0.0023956622
000110 bb 2c a7 3c fa b2 98 bb df 24 0a bd 21 3d c7 bc
       0.020407071 -0.0046600075 -0.03372657 -0.02432114
000120 de 24 4e 3c 46 68 e9 bc 4e a3 b9 bc b3 98 05 3d
       0.012582032 -0.028492104 -0.022660878 0.03261633
000130 6d a2 d4 bb 98 73 0d bd ae 96 ab 3c b8 d2 0e 3b
       -0.006489089 -0.034534067 0.020945873 0.0021793079
000140 3e 65 0c bc 30 ec db 3b da 01 84 3c 17 60 05 bc
       -0.00856906 0.0067115054 0.016114164 -0.008140585
000150 7c 9c 9d bc 54 99 03 bd b9 b7 9f bc 97 75 c1 bc
       -0.019239657 -0.032128647 -0.019496785 -0.023615642
000160 7a e8 92 bb bb 17 72 39 b8 e2 f4 3c 56 6e d0 3b
       -0.00448328 0.00023087759 0.029893264 0.0063608093
000170 24 72 03 3d 7e 20 96 3b c1 5d 8f bb 56 9b aa bc
       0.032091275 0.00458151 -0.00437519 -0.020826023
000180 0e 52 4a 3c 4c 6b ae 3c cd 4f b7 bc 9f af 64 3c
       0.012348665 0.021291398 -0.02237692 0.013957887
000190 c5 d1 63 bc 5d ae 17 bc 28 52 af bc 2c 42 73 bc
       -0.013904993 -0.00925788 -0.02140148 -0.01484732
0001a0 e2 f8 c2 bc a1 f7 02 bc aa 14 d2 bb 2d 41 b1 3c
       -0.023800317 -0.00799361 -0.0064111548 0.021637524
0001b0 8f 27 64 3c 15 6d a9 3c 9f db b7 bc 93 ec 13 3b
       0.013925447 0.020681897 -0.02244359 0.002257143
0001c0 c1 26 d3 3c f2 6b 93 bc a7 39 08 3d cf ed 04 bd
       0.025775315 -0.017995808 0.033258107 -0.032453354
0001d0 df 9e cf 3c 27 c9 01 bd c2 36 7b bc 8b 93 56 bc
       0.02534431 -0.031685974 -0.0153328795 -0.0130967
0001e0 18 cc aa bc 94 28 99 bc 64 5a 07 bd b9 78 e2 bc
       -0.020849273 -0.018696107 -0.033045188 -0.027645456
0001f0 2f 2e 21 3c 8e 7b 0e bd e4 fc 2a bd 32 33 38 bb
       0.009837671 -0.0347858 -0.04174508 -0.0028106687
000200 b8 f4 00 bc a5 95 95 ba 32 6c b2 bc f8 bc 90 bc
       -0.0078708455 -0.0011412395 -0.021780107 -0.017668232
000210 41 c1 8b bc e5 62 f5 ba c9 e0 32 bc c3 be 00 3c
       -0.017059924 -0.001872149 -0.010917851 0.007857981
000220 f0 66 33 3c 1f e6 03 3d 59 f3 d2 3c af cd cb 3c
       0.010949835 0.032201882 0.025750803 0.024878351
000230 a5 e4 e3 3b f7 59 19 3c eb 52 8b 3c c0 f3 eb bc
       0.006954747 0.009359828 0.017007312 -0.028802752
000240 0f 55 e4 3c 5b 7b a4 bc ee e5 f6 bc e3 af 2b bc
       0.02787259 -0.020078352 -0.030138936 -0.010478946
000250 32 bf 9c 3c 5f 63 f6 3a f8 08 75 bc c6 b1 fb 3b
       0.019134138 0.0018797925 -0.014955752 0.0076811044
000260 43 49 e2 ba 29 b2 29 bc 41 54 a7 bc b7 cc ba bc
       -0.0017264265 -0.010357418 -0.020425918 -0.022802694
000270 08 27 23 bd ae 1b 93 bc e0 1a 39 bd c9 32 15 3c
       -0.039832145 -0.017957535 -0.045191646 0.009106346
000280 19 6e 08 bd 96 81 f4 bc 2b 05 a9 3a 51 93 f2 bb
       -0.033308122 -0.029846948 0.0012895217 -0.0074028154
000290 2d 71 b0 3c 46 83 a0 bc fc dc 89 bc 81 6b 44 3c
       0.021538341 -0.019593846 -0.016829006 0.011988522
0002a0 67 55 84 3c 16 d1 08 3d 50 6d 03 bd f5 19 be bc
       0.016154004 0.033402525 -0.03208667 -0.023205737
0002b0 d7 39 75 bb 88 8c 01 bd c1 f6 fc 3b cc f6 1f 3d
       -0.0037418508 -0.03162816 0.007719845 0.039053723
0002c0 50 27 86 3c 77 c9 24 bc 4b 65 8e bc 21 1b 4f bc
       0.016376168 -0.010057799 -0.017382285 -0.012640745
0002d0 5e c5 9a 3c 8d ee 0c bd 3a 34 63 3b bf 66 19 bc
       0.01889294 -0.034407187 0.003466858 -0.0093628755
0002e0 23 58 c5 bc 57 c8 a2 3c 69 44 e3 bc 0d 1a 12 bc
       -0.024089878 0.01987092 -0.027742581 -0.008917344
0002f0 43 c6 b6 bc 9d 91 b5 ba 6b a9 9a 3c 91 22 60 bc
       -0.022311335 -0.00138526 0.018879613 -0.013680116
000300 22 2c 6d bc 5d 04 d4 3c 88 ea 8c bc de 0b e8 bb
       -0.014475854 0.025880987 -0.017201677 -0.007081493
000310 96 b6 88 bc 5a 7c e4 3c 58 90 c4 3c 33 14 75 bc
       -0.016688626 0.027891327 0.02399461 -0.014958429
000320 43 f7 df ba 53 cb cc 3b 1f b4 e6 3c df d9 45 3d
       -0.001708724 0.006249824 0.02816206 0.04830348
000330 b8 a0 35 3d d9 97 9e 3b 9a 8b 51 3d f2 29 a2 3c
       0.044342726 0.004839879 0.051158525 0.019795392
000340 19 45 53 3d a6 9b 8e 3c aa c5 97 3c 07 20 cb 3c
       0.05157957 0.017408203 0.01852687 0.024795545
000350 b9 48 1f 3c e1 a2 9f 3c 46 56 f0 3c 7f be cc bc
       0.009721928 0.019486846 0.029338013 -0.02499318
000360 6a 71 de 3c e5 d3 10 bd 94 bf ca bc d4 0d a1 bc
       0.02715369 -0.03535833 -0.024749555 -0.019659914
000370 6f f5 84 3c 10 c2 dd bc 25 54 26 bc 88 11 52 bb
       0.016230313 -0.027070075 -0.010151898 -0.0032053906
000380 0c 9e f7 bc 35 7c 11 3d 3c da b5 3a 65 de 28 bb
       -0.03022673 0.035518844 0.0013874243 -0.0025767323
000390 2e 50 65 3c ee b2 09 3d ec d5 27 3d 64 5c 32 3d
       0.013996167 0.033617906 0.040975496 0.04354514
0003a0 b9 49 26 3d 9c 95 86 3d 02 76 b2 3d 4f a5 43 3d
       0.04059765 0.065715045 0.087139145 0.047765072
0003b0 27 55 40 3d 3b bb c0 3c 5d d3 68 3d 7f b9 d7 ba
       0.046956208 0.023526778 0.056842197 -0.001645848
0003c0 bb d4 72 3d 3b 6a 02 3c f3 2f 18 3d 64 e6 36 3d
       0.059284907 0.007959898 0.037155103 0.04465331
0003d0 1d 26 06 3d 77 7d 82 bc c7 67 d0 3c 3d b1 b9 3c
       0.03275119 -0.015928967 0.02544011 0.022667522
0003e0 d7 ae f2 3c 80 25 d2 39 fb e8 f9 3c 22 1f d4 bc
       0.029624386 0.0004008226 0.030506602 -0.025893752
0003f0 d4 cb 90 3c 0b a1 1b 3c a7 a3 25 3c ab f1 ac 3c
       0.017675318 0.009498845 0.010109819 0.02111133

linear1.bias f4 [128]
000000 b5 aa 64 3a 73 17 17 bb c1 49 29 3d d3 ab 5f ba
       0.0008722947 -0.0023054748 0.041330103 -0.00085323787
000010 4b 86 a6 bc 7e 90 fd bc ab 85 bd bc 1e 21 5f 3d
       -0.020327708 -0.030952688 -0.023135027 0.054474942
000020 3a 36 57 3d 67 81 45 3d fd 21 18 bb 7f d4 24 bd
       0.05254195 0.04821911 -0.0023213618 -0.040241715
000030 49 1f 48 bd cb 5b ca 3c f6 dc 7f 3d d2 d9 a6 3d
       -0.04885796 0.024701973 0.062466584 0.08147015
000040 32 c4 08 3d 41 99 c6 bc 43 f6 9c 3c db 14 e6 3c
       0.03339023 -0.024242999 0.019160395 0.028086117
000050 e7 37 6b 3c fd 77 de 3b fe f7 ae 3d 74 5e 72 3d
       0.01435659 0.006789206 0.085433945 0.05917211
000060 2e 97 8c 3d 9d 93 88 bc 5b 89 04 bd 7a 68 c0 3a
       0.06864773 -0.01667195 -0.032357555 0.0014679574
000070 13 1f 06 bd e3 28 75 bc ab 87 62 3c 42 c6 cd 3d
       -0.03274448 -0.014963361 0.013826291 0.1004758
000080 4c b2 76 3d aa d2 cc bb 72 ce 84 3d fa 75 14 3d
       0.06022863 -0.006250699 0.06484689 0.036245324
000090 d1 a6 3e 3c d8 c2 96 3d 18 38 7a 3d 72 56 b0 bc
       0.011636452 0.07361382 0.06108865 -0.021525595
0000a0 53 13 48 3d 75 4d b2 3c b0 3a f0 bc 1e 51 05 bd
       0.048846554 0.02176545 -0.02932486 -0.032548063
0000b0 8c cb da 3d 14 ec 80 bd 05 51 8b bb a1 a9 08 bd
       0.10683355 -0.06295028 -0.0042516016 -0.033364896
0000c0 8b 8a 02 bd 62 85 1e bd a7 49 cf 3c 24 84 50 bd
       -0.031870406 -0.038701423 0.025303675 -0.05090727
0000d0 03 cf e0 3c e5 ed 38 bd 9b d7 72 bd b3 f5 d3 3b
       0.02744246 -0.04514875 -0.05928765 0.0064684986
0000e0 e7 14 b0 3d 76 72 62 ba 6e 31 f2 3b b8 bc 12 3d
       0.08597737 -0.0008638272 0.0073911464 0.035824507
0000f0 8e 94 09 3c 7c fc b8 3c 4b ec 19 bd 99 02 8f b9
       0.008397235 0.022581331 -0.037578862 -0.0002727702
000100 bd 4e 4a bd 59 12 53 bc b3 d7 d5 3d cb e3 91 bc
       -0.049391497 -0.012882792 0.10441532 -0.017808815
000110 ec 99 8e bc 7b 68 fb bc 90 1a 12 3d 13 ea 56 3d
       -0.01740738 -0.030689469 0.035669863 0.052469324
000120 af 31 4d 3d f8 a4 7a 3c e7 48 c1 3c 27 6f 1b 3d
       0.05009621 0.015298121 0.023594333 0.0379478
000130 3a 5d 85 3d 8a a9 49 bd 35 ac 49 bc b7 de c5 3c
       0.06511922 -0.04923395 -0.012309124 0.02415405
000140 23 9d 6c 3b 0c ac 23 bc f2 0d 85 3c 0d be 84 3d
       0.0036104403 -0.00998975 0.016242001 0.06481562
000150 bd 48 ac 3d bd 20 a4 3c c1 43 13 3d a5 ee 80 3c
       0.08412311 0.020035142 0.035953287 0.015738795
000160 1e ef 29 3d 0b 19 08 bc 90 03 44 3c e7 64 1e 3d
       0.041487806 -0.008306752 0.01196374 0.038670447
000170 87 da ca bc 2d d7 11 3d b4 fe 24 3d 27 1b ea bc
       -0.024762405 0.0356056 0.040281966 -0.0285774
000180 3d 30 bd b8 5b 2f 96 3c c2 3f a0 3c 0a 0d 4f 3d
       -9.0212074e-05 0.018333128 0.019561652 0.050549544
000190 2c 50 2a 3d 12 94 4c 3d 22 01 26 3d 4f e4 bb 3d
       0.041580364 0.0499459 0.040528424 0.09174406
0001a0 6f 01 e4 3c 55 28 ef bc ed 4b 6e 3d be e3 f3 bc
       0.027832715 -0.029194036 0.058177877 -0.029771682
0001b0 f9 d0 a0 3d 14 c2 84 bc 70 8a 8b 3b 3b e2 39 3c
       0.07852358 -0.016205825 0.0042584464 0.011345441
0001c0 f8 06 1a bc b1 f3 09 bd 00 5c 2b 3d 1c c2 76 3d
       -0.009401076 -0.033679668 0.041835785 0.06024371
0001d0 99 02 e2 bc ac 91 0c 3d 59 aa ea bc 57 8e 9e 3d
       -0.02758913 0.03431861 -0.028645681 0.07741993
0001e0 61 f0 90 bc 63 ad f0 3d 0e 38 66 3d 49 25 40 3d
       -0.017692747 0.11751821 0.0562058 0.046910558
0001f0 6c 87 e3 3c 07 22 7b 3d fc 3d 08 3d 95 41 8b 3d
       0.027774535 0.061311748 0.033262238 0.06799618

linear2.weight f4 [10, 128]
000000 ff a7 c5 bd a1 7f a3 bd 1c 93 73 bd 37 20 81 bd
       -0.09651183 -0.07983328 -0.059466466 -0.063049726
000010 f9 bc 16 bb 0d 53 b5 3e 7b 00 91 3d 95 51 10 3e
       -0.002300082 0.35414925 0.0708017 0.14093621
000020 a8 92 94 bd e3 08 b3 be dd 7b 03 be e0 9f a5 3d
       -0.07254535 -0.34967718 -0.12840219 0.08087134
000030 9d c1 6a bd 7c 6f d4 bd 2f e6 2b bb 67 03 32 bd
       -0.05731355 -0.103728265 -0.002622973 -0.043460276
000040 4b 97 98 bd f5 61 5c bd d9 c2 84 3e 64 d1 0b bd
       -0.07450732 -0.053804357 0.25929907 -0.034135237
000050 a8 e9 48 3d 41 6a 15 3e 3c c1 db 3c 83 7b 9b 3d
       0.049050957 0.14591314 0.02682554 0.07591917
000060 68 62 21 3d d6 37 42 bd 94 f8 fc 3d 63 13 ad 3e
       0.03940049 -0.04741653 0.123521 0.33803853
000070 fb dc 5e be 94 b4 35 3e 3a d1 13 be 2a 7c fd bd
       -0.21763985 0.17744666 -0.14435282 -0.12377198
000080 71 e3 11 bd 66 f8 59 be f4 2c 3d 3e 25 35 81 3d
       -0.035617296 -0.21286163 0.1847418 0.06308965
000090 98 ff 58 bd 4f 7c e0 bd ee 0b a9 bd 1d 75 70 3d
       -0.05297813 -0.1096121 -0.082542285 0.058705438
0000a0 fb 57 36 bc fe e6 04 be 6c fb 80 bc 96 48 15 be
       -0.011129375 -0.12978742 -0.015744887 -0.1457847
0000b0 45 35 83 be f1 da a3 3e 15 12 0d bc d7 91 b4 bc
       -0.2562658 0.32002977 -0.008610268 -0.022042198
0000c0 eb 3e c1 3d 5f 94 59 3e 59 b6 bd 3d 6b cc 32 3c
       0.09435829 0.21248005 0.09263296 0.010912995
0000d0 96 b9 43 be 50 90 eb bc 7b 93 fd bc 05 4e bf bd
       -0.19113764 -0.028755337 -0.030954113 -0.09341053
0000e0 38 c2 80 bd 18 4c 82 3d 0d 6c fa bd 6a 7f 25 bd
       -0.06287044 0.0636217 -0.1222764 -0.040404715
0000f0 88 0f c7 bc 13 98 8f 3d f7 9d 8e 3c 47 96 90 3e
       -0.024299398 0.07011428 0.017409308 0.28239653
000100 69 7e 12 3d 52 c5 46 3e 8e 15 d7 3e 41 f1 e0 3d
       0.035765085 0.19411209 0.42008632 0.109835155
000110 33 8d 02 bd 0b bb c0 bd 2e 0f 5c bc 91 da 8e bd
       -0.03187294 -0.094106756 -0.0134313535 -0.06975282
000120 da 1d 13 3c 8d 5b a7 3d 8a 11 17 be 15 9b 34 be
       0.008979285 0.08171759 -0.14752784 -0.17637284
000130 c7 81 83 3d d6 cb 96 3d 08 ae 26 3e 05 6d bd 3d
       0.064212374 0.07363097 0.16277325 0.092493095
000140 85 8c 9a bd bc 1f 91 3d c9 83 60 be 17 4f 4d be
       -0.07546333 0.07086131 -0.21925272 -0.20049702
000150 49 2b d1 bd 8a 2c f4 bd 59 d0 fe bc b9 56 33 bd
       -0.10213334 -0.11922558 -0.031105207 -0.043783877
000160 4e 2a 32 be 8b 47 37 3e bd 4a 76 bd 13 72 05 be
       -0.1739895 0.17898385 -0.06012987 -0.13031797
000170 66 62 03 3c d1 82 bc 3d 2e 63 7b 3e 16 86 d8 be
       0.0080190655 0.09204639 0.24549553 -0.422898
000180 46 71 27 bd b0 8f 0d 3d c9 84 e3 bd 8f fe 3a be
       -0.04087951 0.03456086 -0.11109311 -0.18261169
000190 50 16 2e bd bc df b9 bd 9a 75 9e bb d3 e6 2c 3e
       -0.042501748 -0.09075877 -0.0048357965 0.16884927
0001a0 b3 ec 73 be dc 65 1a be db 39 59 be f7 83 62 3d
       -0.23820762 -0.15077919 -0.21213476 0.055301633
0001b0 6f ca 34 be 5e 21 39 be dd c0 cc bd 89 f3 32 bc
       -0.17655347 -0.18079135 -0.09997723 -0.010922321
0001c0 26 94 97 bd 27 15 6a bb 18 ad bc 3e f0 ab 22 bd
       -0.07401304 -0.0035718174 0.3685081 -0.039714754
0001d0 a7 84 10 bd 91 ac ac bd 8c b5 64 3d ed 44 e2 bd
       -0.035282757 -0.08431352 0.0558372 -0.11048303
0001e0 98 71 5f bc 72 48 86 3e c8 fa e8 bd 66 e2 74 be
       -0.013637923 0.26227146 -0.11375958 -0.23914489
0001f0 d8 2e 3a bd 50 41 2a bc 2c 58 73 3e 1c 5c 0b 3e
       -0.04545483 -0.010391548 0.23764104 0.13609356
000200 65 87 56 be 85 9b 9d bd d1 4e 3d bd b6 ba 4a be
       -0.20950086 -0.076956786 -0.046217743 -0.19797787
000210 91 00 50 3e f3 dc 80 be 4b cc c8 bd 0b 85 e6 bd
       0.20312716 -0.2516857 -0.09804591 -0.11255845
000220 a0 5f d3 bc f5 26 2e 3e 5f 96 19 be ba e4 a9 ba
       -0.025802433 0.17007048 -0.14998768 -0.0012961843
000230 be 6b 90 3c f3 a5 c8 3c 03 42 03 be b0 f8 25 bd
       0.0176295 0.024493193 -0.1281815 -0.04052037
000240 61 7b ac bd 26 de bf bd e3 35 53 bd d7 cb 04 bb
       -0.0842197 -0.09368543 -0.051565062 -0.00202631
000250 76 fe 8e 3d 46 47 06 be 76 25 9b be 1c 3f 22 3e
       0.06982128 -0.13113126 -0.30302018 0.15844387
000260 83 83 85 3b a9 ad 18 3c d0 0d 8a bd 68 46 83 3c
       0.0040745153 0.009318748 -0.06740916 0.016024783
000270 de b1 13 be 99 51 6e be d8 40 3a 3d 59 11 82 3e
       -0.1442332 -0.23273315 0.045471996 0.2540386
000280 bf f1 a7 bd 25 79 99 bd 32 d9 bb 3c 93 5a 3f 3d
       -0.08200406 -0.074938096 0.022930715 0.046717238
000290 4c d4 af bd e1 c8 6a be 47 d1 0c be 84 5e 07 3e
       -0.08585414 -0.22928192 -0.13751708 0.13219649
0002a0 4c bf 86 be 2f 19 46 3e 05 34 eb bd d0 a9 da 3c
       -0.26317823 0.19345544 -0.11484531 0.026692301
0002b0 24 12 73 3d d9 ec 71 bc b7 55 98 3c f1 0d e2 3c
       0.059343472 -0.014765942 0.01859556 0.027594538
0002c0 5b 5d 00 3c 3a 56 ec bd 94 d4 4c be db 90 26 bd
       0.007834758 -0.11539884 -0.20002967 -0.04066549
0002d0 a3 96 dc bb 58 c1 38 bd b5 e0 bd bc a5 be 82 bd
       -0.0067318245 -0.045106262 -0.023178438 -0.06384019
0002e0 2c bf 5c be fc f4 0a 3e cd 4f 43 3c cd 14 0a 3e
       -0.21557301 0.13570017 0.011920881 0.13484497
0002f0 00 ee 03 bd a9 e8 51 bb d3 ea c4 bd c7 3c d1 bd
       -0.032209396 -0.0032029545 -0.09615102 -0.102166705
000300 66 6c 48 be 7c 10 8e be 2b 19 6b be ab eb 22 3d
       -0.195726 -0.27746952 -0.2295882 0.03977553
000310 d7 e8 00 bd 32 95 97 3d 5f 9b 42 bd 32 ac 88 3e
       -0.031472053 0.074015036 -0.047511455 0.26693875
000320 39 cf 3e bb 2a cc 26 3e f9 61 98 3e d3 a3 5d 3e
       -0.0029115214 0.1628882 0.29762247 0.21644525
000330 91 aa e1 bd b4 a8 d4 3d 36 87 e9 bd dc fd b4 bd
       -0.11018861 0.1038374 -0.114027426 -0.08837482
000340 e3 12 1d 3e 39 29 6e bd 4f 68 9f 3b 5f b9 80 3e
       0.15339236 -0.05814478 0.0048647295 0.25141427
000350 ba d7 5f 3e 73 f2 1d 3e 57 09 b1 bd 11 1d 2c bd
       0.21859637 0.15424518 -0.086443596 -0.042019907
000360 87 d1 fd bd 62 5e a7 bc 1f 02 49 bd 73 c0 0e be
       -0.1239348 -0.020430747 -0.04907429 -0.13940601
000370 ae d3 85 bd 3b f5 dd bd f1 4c 91 be 0e 4b b6 3e
       -0.06534515 -0.108377896 -0.28379014 0.35604137
000380 f2 49 44 3c 92 68 cb bc 8c 12 ae 3d b8 b5 41 be
       0.011980521 -0.024830136 0.08499631 -0.18916976
000390 37 46 8c 3d 5d d9 39 be c3 e1 28 bd 08 6a 4c 3d
       0.0684933 -0.18149324 -0.04123093 0.049905807
0003a0 fc a0 2a 3e a9 f0 08 3e 1f 31 89 3e b7 3c 18 3d
       0.16662973 0.13373055 0.2679529 0.037167277
0003b0 6a df 8d 3e 82 96 35 be fc 01 31 3e d1 92 4b bd
       0.27709514 -0.17733195 0.17285913 -0.049700562
0003c0 33 2f 18 bd 2a 62 22 be f6 0e 3d be fe f6 32 bd
       -0.037154388 -0.15857759 -0.18462738 -0.04369258
0003d0 8c 2e 83 bd 7a c0 5d 3e 5b 42 96 bb 06 6e 8c 3e
       -0.064053625 0.21655455 -0.004585547 0.2742769
0003e0 e3 dd 23 3d 93 9f 6d be 41 3f 35 bd e2 93 c5 3e
       0.04000653 -0.23205404 -0.044249777 0.38589388
0003f0 43 62 57 3e 1a ef 0e be 51 09 71 be 8b 20 ab bd
       0.21033578 -0.13958398 -0.2353871 -0.083558165

linear2.bias f4 [10]
000000 b4 07 80 bd 90 cc 5b 3e fb 0c 08 bd a8 79 04 be
       -0.06251469 0.21464753 -0.033215504 -0.12937033
000010 32 06 c6 3d e2 29 3b 3e 28 4d b4 bc 71 25 a0 3c
       0.096691504 0.18277696 -0.022009447 0.019549103
000020 92 f6 6a be 25 f3 30 3b
       -0.22945622 0.0027000394
