3-Softmax-Regression/mnistmodel.pth (torch, 32938 bytes, 2 tensors)

linear.weight f4 [10, 784]
0	0x3c5e77f3	0.013578403
1	0xbcec9b3e	-0.028882619
2	0x3c981df5	0.018568972
3	0x3d0f8124	0.035035267
4	0x3b37a86e	0.0028023976
5	0xbc04a62e	-0.008096261
6	0xbcb0f4ce	-0.021601107
7	0x3c534ec5	0.012897198
8	0xbc34b181	-0.011028648
9	0x3d033434	0.032032207
10	0x3d0caa67	0.034342196
11	0x3cd4dc2a	0.025983889
12	0xbc87ae8c	-0.016562723
13	0x3c789061	0.015171141
14	0xbcf6a6ce	-0.030108836
15	0x39a3dd25	0.00031254548
16	0x3ce6fd55	0.02819697
17	0x3cf9303c	0.030418508
18	0x3c684713	0.014177102
19	0xbb9105b7	-0.00442573
20	0xbd0136f3	-0.031546544
21	0x3c81bacc	0.015836142
22	0x3ca90b1e	0.020635184
23	0x3cb35705	0.02189208
24	0x3c8532c7	0.016259564
25	0xbc369221	-0.011143238
26	0x3cb4a4da	0.022051264
27	0xbcad9df7	-0.021193488
28	0x3c01709c	0.007900383
29	0xbcf05068	-0.029335216
30	0xbc07c3ce	-0.00828643
31	0x3cb42527	0.021990372
32	0x3cb2b001	0.02181244
33	0x3c907680	0.01763463
34	0xbbe65e81	-0.0070303087
35	0xbc2a7cce	-0.010405732
36	0xbc82a38c	-0.015947126
37	0xbcb43e45	-0.022002349
38	0xbcc2cd67	-0.023779584
39	0x3f26ba0c	0.65127635
40	0x3fa892b8	1.3169775
41	0x3f13f603	0.5779726
42	0x3b2b4897	0.0026135796
43	0x3f2a0160	0.6640835
44	0x3febc3ca	1.8419125
45	0x3f6ee656	0.93320215
46	0x3c740dc5	0.014895861
47	0xbc9f7c77	-0.01946853
48	0x3c14cab7	0.009081534
49	0xbc7264c5	-0.014794533
50	0xbcf69e7e	-0.030104872
51	0x3c91ff77	0.01782201
52	0xbd04f1b8	-0.032457083
53	0xbc151ea0	-0.00910154
54	0x3c1675dc	0.009183373
55	0xbcd6dac5	-0.026227364
56	0x3b172537	0.0023062953
57	0xbbfa97d3	-0.0076474934
58	0xbc33b901	-0.010969401
59	0x3deb9f87	0.11505037
60	0x3d73709d	0.05943357
61	0x3ce0a4f1	0.0274224
62	0xbe19807f	-0.14990424
63	0xbd639ffb	-0.05557249
64	0xbe00632b	-0.1253783
65	0xbe4f6c8c	-0.20256251
66	0xbd13546b	-0.03596918
67	0xbf012b77	-0.5045695
68	0xbf3dee00	-0.74191284
69	0xbf8f622c	-1.1201835
70	0xc008b6ac	-2.1361494
71	0xc0183ec0	-2.37883
72	0xbfc00a1d	-1.5003086
73	0xbf86cee7	-1.0531892
74	0xbf1f5c94	-0.6225064
75	0xbf093e3c	-0.5361059
76	0xbf188bf1	-0.59588534
77	0xbe616fcf	-0.22015308
78	0x3be2109e	0.0068989536
79	0x3cedff55	0.029052416
80	0x3d0a075d	0.03369843
81	0xbb1dc225	-0.0024072018
82	0x3cb76e0a	0.022391338
83	0xbc89c395	-0.016816894
84	0x3c9ba7b5	0.019000867
85	0x3cc78ab5	0.024358133
86	0x3c90f230	0.017693609
87	0x3e3a3ae6	0.1818653
88	0xbd81b916	-0.063341305
89	0xbe98b957	-0.29828903
90	0xbf3a1c79	-0.72699696
91	0xbfb5cb0f	-1.4202594
92	0xbe29d6cc	-0.16585845
93	0xbeef641e	-0.4675607
94	0xbf454ff0	-0.770751
95	0x3f0a65fc	0.54061866
96	0x3e6e3d2f	0.23265527
97	0x40129d0f	2.290836
98	0x3fa6ef82	1.3041842
99	0xbdfca3d1	-0.12335933
100	0x3f4d3a87	0.8016743
101	0x3f5e64ea	0.8687273
102	0xbf76dc51	-0.96429926
103	0xbf916159	-1.1357833
104	0x3e2a217c	0.16614336
105	0xbfa33e6a	-1.2753422
106	0xbf1dc727	-0.6163201
107	0xbe1ddba9	-0.15415825
108	0x3ca0a489	0.019609706
109	0xbc04ae3f	-0.008098184
110	0x3bb3e5cb	0.00549004
111	0x3c40b39c	0.011761572
112	0x3d02c87d	0.03192948
113	0xbc8cfcd3	-0.0172104
114	0xbc5a9ae1	-0.01334259
115	0xbd039d40	-0.032132387
116	0xbdec29f7	-0.11531442
117	0xbf5fd3c2	-0.8743249
118	0xbfa58c2c	-1.2933402
119	0xbe8b8c22	-0.2725535
120	0x3eb757ed	0.3580927
121	0x400da01f	2.212898
122	0xbf386451	-0.7202807
123	0x401b2d98	2.4246578
124	0xbfaed5a3	-1.3658947
125	0x3f8babaf	1.0911769
126	0xbf5618e4	-0.8363173
127	0x3fc6b80d	1.5524918
128	0xbf3a27a9	-0.72716767
129	0x3f8737b9	1.056388
130	0x3e24b61e	0.16085097
131	0x3dce29ca	0.100665644
132	0x3ed4ecf4	0.4158703
133	0xbf2eaad5	-0.6822942
134	0x3f368ef6	0.7131189
135	0x3e40ea84	0.1883946
136	0xbef45ab3	-0.47725448
137	0xbdc65e7d	-0.09685991
138	0xbdaca9a3	-0.08430793
139	0x3cef172a	0.02918585
140	0x3cf2f9c1	0.029660108
141	0x3ce0c12a	0.027435858
142	0x3cbe5183	0.023232227
143	0xbdfef3f0	-0.12448871
144	0xbec68cd8	-0.3877933
145	0xc00c76b7	-2.1947458
146	0x3f0d7a8f	0.55265135
147	0xbf0cc772	-0.5499183
148	0x3ec332ec	0.38124788
149	0x3eb1b08e	0.34705013
150	0x3fe1d225	1.7642256
151	0x3ee4f765	0.44719997
152	0xbf6e6265	-0.9311889
153	0x3f256d97	0.64620346
154	0x3ed079be	0.40717882
155	0xbeab3669	-0.3343995
156	0x3ebd046b	0.36917433
157	0x3d6b85d2	0.057500668
158	0x3ebb47c9	0.36578205
159	0x3f0f253b	0.55916184
160	0xbf370ae2	-0.7150098
161	0xbe5c99b6	-0.21543011
162	0x3f25b692	0.64731705
163	0xbf8d905e	-1.1059682
164	0xbf69fe27	-0.9140343
165	0xbfae88f6	-1.3635547
166	0xbea74b7d	-0.3267478
167	0xbe046028	-0.12927306
168	0xbc46b141	-0.012127222
169	0xbce1a1fa	-0.027543057
170	0xbc3a7a6d	-0.011381728
171	0xbd38ca80	-0.045114994
172	0xbf5c2f76	-0.8600992
173	0xbe90a1b2	-0.28248364
174	0x3e5fe947	0.21866332
175	0xbe2f4019	-0.17114295
176	0x3d89816c	0.067141384
177	0xc054eb83	-3.3268745
178	0xbec2f6fb	-0.38079056
179	0x3d7556cb	0.059897225
180	0xbf161369	-0.5862337
181	0x3fa2dacf	1.2723025
182	0x3ef5752b	0.47940955
183	0xbdc1d5b8	-0.09464592
184	0x3f8494c3	1.0357898
185	0xbee9474d	-0.4556221
186	0x3fa75633	1.3073181
187	0xbe359a40	-0.17734623
188	0x3f333195	0.6999753
189	0x3fdf9f4c	1.7470489
190	0x4005388a	2.0815759
191	0xbeb575f5	-0.35441557
192	0xc005014e	-2.0782046
193	0xc0402ca4	-3.0027246
194	0xbffd0bdf	-1.9769248
195	0xbed06327	-0.40700647
196	0x3c5edcee	0.013602478
197	0xbbf08dca	-0.0073411213
198	0xbd49b0cb	-0.04924087
199	0xbd81e1b7	-0.0634188
200	0xbf6f49ae	-0.934718
201	0x3e7f8512	0.24953106
202	0x3fa34b8d	1.2757431
203	0x3f2ebb16	0.6825422
204	0xbf87b8ed	-1.060331
205	0x3f3d41aa	0.7392832
206	0x3e8d347b	0.27579102
207	0x3f8eadc9	1.1146785
208	0xbf9bf3ac	-1.2183738
209	0x3f77fb70	0.9686804
210	0x3e5bdf45	0.2147189
211	0xbee54b1a	-0.4478386
212	0xbf594c18	-0.84881735
213	0x3fbc62e1	1.4717675
214	0x3f27fa3b	0.65616196
215	0x3f1db183	0.61598986
216	0xbe2d42a4	-0.16919953
217	0xbf8e8135	-1.1133181
218	0xbfd62cd7	-1.6732434
219	0x3f97f344	1.1871114
220	0x3d3c25f2	0.045934625
221	0xc0110015	-2.26563
222	0xbfcb65c2	-1.5890429
223	0x3c59bfc3	0.013290348
224	0x3ed2325d	0.4105405
225	0x3cbc077c	0.022952788
226	0x3d472abe	0.048624747
227	0x3eee52e3	0.46547613
228	0xbf57b8c9	-0.84266335
229	0xbf75d0e6	-0.9602188
230	0xbf7b1ddf	-0.98092455
231	0x3ea72b8f	0.3265042
232	0x3f4a4912	0.79017746
233	0x3f9c06cd	1.2189575
234	0xbf6b222e	-0.9184903
235	0xbeff046a	-0.49808055
236	0x3fc4c2da	1.5371964
237	0xbfa30147	-1.2734765
238	0x3fba4bad	1.4554344
239	0x3e4b6a80	0.19864845
240	0x40150ac5	2.3287823
241	0x3eebe638	0.4607408
242	0x3ebd981e	0.3703012
243	0xbf7d76c1	-0.9900933
244	0x3f8d87e2	1.1057093
245	0x3f8566ee	1.0422037
246	0x3fd8c508	1.6935129
247	0x3fa33a22	1.2752116
248	0x3f63f83a	0.8905064
249	0xc06f144b	-3.7356136
250	0xbfe8e3d5	-1.8194529
251	0xba267050	-0.00063491333
252	0x3c055d1c	0.008139875
253	0x3c6b7c18	0.014372848
254	0x3e6b70c8	0.22992241
255	0x3f8b587c	1.0886378

linear.bias f4 [10]
0	0xbe6e8391	-0.23292376
1	0x3e2b952a	0.1675612
2	0x3ea4f10e	0.3221516
3	0xbe8c069c	-0.27348793
4	0x3dea9b85	0.11455444
5	0x3faae0d6	1.3349864
6	0xbd7fd1e4	-0.062456027
7	0x3ecd2ccd	0.40073243
8	0xbfb72297	-1.4307431
9	0xbeae0ce2	-0.33994204
