practical/self/mnist-relu-linear-hidden.pth (torch, 404760 bytes, 3 tensors)

hidden.weight f4 [128, 784]
00000000: e5cc ccbb da88 be3c 6026 83bc c5b9 c7bc
00000010: 2559 64bb 6542 c53c 9633 093d 253f bf3c
00000020: ee9f b8bc 5365 00bd aefb fa3b b109 fd3c
00000030: 984d 303c 62da 023d fb7d 8ab9 3b5d 07bd
00000040: 3af0 ce3c d0f4 8cbc da31 9b3c 01c0 e237
00000050: 3c32 e53c dcf2 03ba 3401 073d 13ef e13b
00000060: feee 0dbd 4042 0dbd 6c4d f8bc a1fe 6cbc
00000070: dcac b53c f5bc 80bc 1739 9d3c 7c24 11bd
00000080: b7a1 5a3c cfa6 073d a1de 393c 7753 a63b
00000090: 7ef0 fd3c ac56 073d 6ec5 8cbc c6ac 83bc
000000a0: 4fdb 5abc d188 01bc 209c cfbc 6310 3fbc
000000b0: d6fe f83a 54b3 cd3b 4a5e de3a dcfd a63c
000000c0: ce38 d6bc 9378 503a 535e 933b f307 8ebc
000000d0: 9a60 d9bc 9cf6 ec3b 9c34 8b3c d1f1 eabc
000000e0: 8aa8 fa3b 6acd 113c eedc 06bb 3d6a f8bc
000000f0: 3be1 833b 3a15 1f3a b763 e7bc 6c63 d83b
00000100: 0675 523c 2b94 7e3a a0d3 12bd b013 c1bc
00000110: e66d bdbc 7177 0cbb 1826 13bd 3ffe 32bc
00000120: 638d dcbc 0689 5bbd eea6 2fbd 8bd7 d13c
00000130: d562 213c 3f8b 4e3a d902 16bb 0c98 1e3c
00000140: da75 a83c 8676 153c aa9d c7bc 63e0 d43c
00000150: 6504 743c 18d9 63bc dcb1 7dbc e8b4 cbbb
00000160: 219c adbc 6634 9b3b ba96 e03c f0d5 8e3c
00000170: b35a e83c f1c0 7d3c d250 85bc cac7 40bc
00000180: d149 edbc c515 833d 1c8b 9e3d 2d56 d63c
00000190: c12e 553d c08a 61bd ef89 b3bd 69a5 39bd
000001a0: a1c7 0f3c e064 8b3c e2f1 14bd d15a cdbb
000001b0: e164 e4bc 43c6 823b 2f58 0abd 57fe 33bc
000001c0: cae5 873c 6ecf b539 901b fa3c bbdf 983c
000001d0: 4b55 153d 3325 d23c e3e9 143d 191a bdbc
000001e0: 37c8 a13c 2c98 da3c a9df 71bd b8fa 8a3d
000001f0: 0021 6e3d cdf4 d23d 9b7a 113d ed7f 8e3b
00000200: 6fa6 09be efa1 afbd d37f 14bd 63b3 8a3b
00000210: ff72 87bd 62c6 74bc 6405 b2bb 6540 1cbd
00000220: 19c6 d1ba 6da0 20bb b48e 93bc b176 fbbc
00000230: 674d a6bc 9c99 3ebc 7b45 e43c 291e 43bb
00000240: b6a5 153a 5936 96bc 11bc 063d 7906 50ba
00000250: 2f6c 2bbc ab6f 4abd aec2 89bd 7317 243d
00000260: 5c86 cf3c 3b2c 4cbc 4c70 513d bfdc 613d
00000270: f0b2 6e3c 0c5e 76bc 0bff c0bc 99a5 33bd
00000280: 629f f9bd f495 c8bd cdde 5abb 3d50 01bd
00000290: 0c4a 1ebd fdfa d1bc 3e05 f13c 712d 053c
000002a0: f3d7 f13c d712 10bd 9923 bc3c 79ef 1f3d
000002b0: 407e 73bc 2d8d 5bbc 15cd 4dbd 5ce2 a8bc
000002c0: 0e32 67ba e32c 233c d03e 263e cfec 033d
000002d0: 7c7e db3d 494b b13d 6b3a e93d ef52 b93d
000002e0: b0b6 853b 7df9 3cbd c6f1 8e3d 38b9 3bbd
000002f0: 87a7 37bd 8f78 5cbd 0195 72bd ba75 76bd
00000300: cab8 38bd add7 65bd 2341 67bd 7f1a 50bd
00000310: 2e0e f6bb dd6d e83c 58f7 e5bc 76a4 523d
00000320: 7977 0fba 561c 6d3d d15c ca3c 2cdf e4bc
00000330: acaf aabd 259f a63c 32e0 873d 7674 da3c
00000340: bfbc c2bd ce4a e33c cdb9 b53d ad8d fcbd
00000350: 9d61 c0bd 0649 f73c 4abd ed3c 59d0 04be
00000360: bbea 39bd 0dd5 49bd 67fe 653d 4032 75bd
00000370: 6f52 6abd 3352 c7bc ab83 153c 1acb 913c
00000380: 2547 f93b 0634 943b 28ef acbc 317e fa3c
00000390: 2766 97bc d38d 0d3d 3eab e6bc 14fc bbbd
000003a0: 19a3 263c 5469 36bc 70d8 1a3b 1951 0fbd
000003b0: 2156 4cbc 634a fb3d 8122 40bd 581e 09bd
000003c0: eca6 eb3b 6c8a 2d3c 7f7a 0b3e ac3b c6bb
000003d0: 77d6 313c 2870 4c3c 7d47 87bc 66be e3bc
000003e0: ccc7 8c3c f3e9 a03b 0845 4fbc d308 9a3c
000003f0: 011f 77bb 7af8 5d3c 1ead e43c 6fdc bb38
-0.0062500113 0.023258615 -0.01600951 -0.024380574 -0.0034843173 0.024079511 0.03349646 0.02334554
-0.022537198 -0.03134663 0.007659397 0.03088841 0.010760687 0.031946547 -0.00026415274 -0.033047896
0.025261033 -0.01720658 0.01894467 2.7030708e-05 0.027978055 -0.0005033442 0.03296013 0.006894955
-0.03465175 -0.03448701 -0.030310355 -0.014465005 0.022177152 -0.015715102 0.019192262 -0.035435185
0.01334422 0.033118065 0.011344583 0.0050758678 0.030998465 0.03304164 -0.017183986 -0.016073596
-0.013357951 -0.007906155 -0.025343 -0.011661622 0.0018996845 0.006277481 0.0016965356 0.020384721
-0.026150133 0.0007952537 0.0044973283 -0.017337775 -0.026535321 0.0072315466 0.01699286 -0.02867976
0.007649486 0.008899072 -0.0020578462 -0.030324096 0.0040246523 0.00060685317 -0.02824579 0.006603649
0.012845283 0.000971141 -0.035846353 -0.023568958 -0.023123693 -0.0021433497 -0.035925 -0.010924875
-0.026922887 -0.053597473 -0.042883806 0.025615474 0.009850224 0.00078790257 -0.002288988 0.0096798055
0.020564009 0.0091224965 -0.024367172 0.025985902 0.014893626 -0.01390674 -0.0154842995 -0.006216634
-0.021192612 0.004736471 0.027415622 0.017435998 0.028363561 0.015487895 -0.01627389 -0.011766383
-0.028965862 0.064006366 0.07741377 0.026164139 0.05204654 -0.055063963 -0.08766543 -0.045323763
0.008775623 0.017015874 -0.03636349 -0.0062669297 -0.027880134 0.00399092 -0.033775505 -0.010985932
0.016589064 0.00034677557 0.030530721 0.01866137 0.036458295 0.025652504 0.036355864 -0.023083733
0.01974879 0.02668389 -0.05905119 0.06786102 0.05813694 0.10300598 0.035517316 0.004348746
-0.13442396 -0.08575808 -0.036254715 0.0042328103 -0.06613731 -0.014939876 -0.0054327715 -0.03814735
-0.0016004472 -0.0024509684 -0.018012382 -0.030696245 -0.02030058 -0.011633303 0.027865162 -0.0029772616
0.0005708592 -0.018336462 0.032894198 -0.0007935535 -0.010462805 -0.0494229 -0.06726585 0.040061425
0.025332622 -0.012461717 0.051132485 0.05514216 0.014569029 -0.015037071 -0.023559114 -0.043859098
-0.12188603 -0.09794226 -0.003339696 -0.03157066 -0.038644835 -0.025632376 0.029421445 0.00812851
0.029521918 -0.035174217 0.022966193 0.03904674 -0.014861643 -0.013400358 -0.05024441 -0.020615749
-0.00088194094 0.009959432 0.16234899 0.03220826 0.10717484 0.08656938 0.113880955 0.090490215
0.004080616 -0.046136368 0.069797084 -0.045830935 -0.0448375 -0.05382591 -0.059224132 -0.060170867
-0.045098104 -0.056113888 -0.056458604 -0.05080652 -0.0075090146 0.0283727 -0.028072044 0.051426373
-0.000547282 0.05788835 0.024702461 -0.027938448 -0.08334288 0.020339558 0.06634559 0.026666861
-0.09508657 0.02774563 0.08873329 -0.1233171 -0.09393618 0.030186187 0.029020924 -0.12970103
-0.045389872 -0.049275447 0.05615082 -0.059862375 -0.05720752 -0.024331188 0.00912563 0.017797042
0.007607358 0.0045228032 -0.021110132 0.03057775 -0.018481327 0.034559082 -0.028157827 -0.091789395
0.010170721 -0.011133511 0.0023627542 -0.03498945 -0.012471707 0.122700475 -0.046907905 -0.033476204
0.0071915295 0.010592084 0.13620947 -0.006049594 0.010854355 0.012477912 -0.01651358 -0.02780075
0.017185114 0.0049107014 -0.012650736 0.018803036 -0.0037707689 0.013548011 0.02791458 8.957914e-05

hidden.bias f4 [128]
00000000: 900c 973e 667d a13e fbdb 17be f120 f63c
00000010: f7ba b9be 9147 a63e 4bc5 c9bd ccb7 8c3e
00000020: 8bcd bc3e 733c 263c 96ad 14be 4bce a03e
00000030: 37e0 843d e1d0 2c3d 57f0 d33d 1b75 493e
00000040: 26f3 8e3e 7fd0 b7be 4892 62bd 5901 d63d
00000050: b6e5 373e f29f d03d 61bd a1bc 55fa 083e
00000060: fa86 43be 1203 a13d 41a9 783e c184 13bd
00000070: a99e 923d 76bc 7e3e 9c9b 793d bac3 0b3e
00000080: c510 59bc f1ea a8bd 6917 253f 0f1e ec3e
00000090: abea 9d3e 3a89 aabd 8fb7 45be 5b93 8b3e
000000a0: aae4 4c3d 61aa 423e 0778 5c3e e159 383d
000000b0: c349 343d c856 cfbd f3fb 61bc a6ee 143e
000000c0: 3242 c93e c172 943e 8d0f c53e 9d1d 5b3c
000000d0: c402 183d b5d1 d7be a09f c33e 26c0 2f3c
000000e0: 8fe1 94bc 9653 6a3e a8cc a7ba dbee 80be
000000f0: 9477 65be f51e 913e 319b a03d f8fe 013e
00000100: 61ed 2c3e dfae 76bd 7e35 0abe d4b9 023e
00000110: 5ed6 c63d 0ea3 fd3e e09e af3d 13d0 683c
00000120: 7265 ad3e aac4 55be 265c e03e 321e a43e
00000130: b0af 82bd 3db8 eabc 8b08 f5bd 769b 0b3e
00000140: 03f7 6a3d 6fde 6dbe 1dbc 163f e285 283d
00000150: e7f6 0a3d 4c3a ccbc f2c6 c6bd 0562 483d
00000160: a97a b03e f144 3c3e d558 843d eb4d dcbd
00000170: fb8d 59bd 06dc 113d 6675 e5bd 5608 bbbd
00000180: a11e 213d c801 813e 9097 283d c44e 893d
00000190: 5d56 9f3d 488c 463e fa9d 52bf db22 94bb
000001a0: 2537 ad3e 7eb6 593e 6f53 26be 649b 13be
000001b0: a173 51bc a069 edbd b409 903d 8d1c 9dbe
000001c0: 2ebc d63c 7e65 a4bc 78eb a83e 075b 253f
000001d0: ce90 6bbe 6237 053f 7118 f7bd d0e2 133e
000001e0: 4b34 c43e e230 5a3e 7c48 d23c dbac 8cbc
000001f0: 0adf ac3c d7f9 2dbd 2325 cfbd 355d 5d3e
0.29501772 0.31540984 -0.1483001 0.030045005 -0.36275455 0.32476476 -0.09852084 0.27483976
0.36875567 0.010146248 -0.14519343 0.3140739 0.06488078 0.04219139 0.103485756 0.19673578
0.27919883 -0.35901257 -0.055315286 0.10449476 0.17958722 0.10186757 -0.019743623 0.13376744
-0.19094458 0.07861914 0.24283315 -0.036015276 0.07159168 0.2487658 0.060939416 0.13648883
-0.013248627 -0.082479365 0.64488846 0.46116683 0.308431 -0.08326955 -0.19308303 0.2726086
0.05002276 0.19010307 0.21530162 0.04500759 0.044015657 -0.10123974 -0.0137929795 0.14544162
0.39308316 0.289938 0.38488427 0.01337376 0.037112013 -0.4215218 0.38207722 0.010726964
-0.018173961 0.22883448 -0.0012802081 -0.25182232 -0.22408897 0.2834393 0.078421004 0.12694919
0.16887428 -0.060225364 -0.13496968 0.127662 0.09708856 0.49538463 0.08575225 0.014209765
0.3386646 -0.20875803 0.43820304 0.32054287 -0.06381166 -0.028652305 -0.1196452 0.13633522
0.057364475 -0.23229383 0.5888079 0.041143306 0.03392687 -0.024930142 -0.097059146 0.048921604
0.34468582 0.18385674 0.06462256 -0.10757049 -0.05311392 0.03561022 -0.112040326 -0.09132449
0.03933585 0.2519667 0.041160166 0.067044765 0.07780144 0.1938945 -0.82272303 -0.0045207567
0.33831134 0.21261021 -0.16242765 -0.14414746 -0.012783916 -0.11592412 0.07033101 -0.30685845
0.026212778 -0.020067926 0.32992148 0.6459202 -0.23004457 0.5203763 -0.12065209 0.14441991
0.38321146 0.2130771 0.025669329 -0.017172268 0.021102447 -0.042474594 -0.10114505 0.21617587

linear.weight f4 [1, 128]
00000000: a34d 80bf 4819 82bf 5499 4ebf 2722 3a3f
00000010: 444c 153f 973d 373f 4ccd 75bf acfd 363e
00000020: af76 833f 6947 843e 23e7 e5be 931b 0a3e
00000030: 4237 7b3f 3b2e 903e b188 803f 7e03 833e
00000040: e588 3c3f 46f7 4abf 9625 233f de5c cb3e
00000050: 086e 873d f4f4 a73e db0b 163d 80c4 883e
00000060: ae0b e73e 9afb 083f 1d8e 1a3e f701 153f
00000070: 25be 453f e966 d43d da99 183e d20e 3c3f
00000080: c1c8 10bf 368d f53e 496d 8e3e 19a9 3dbf
00000090: 0308 19bf 4f55 4dbf e40b 55bf 98ef 3cbf
000000a0: 1217 793f 1438 f23e 78a0 b63e 0246 d73e
000000b0: 889b debe 1923 003f 1785 13bf 529a 72bf
000000c0: 3574 9dbf bd03 34bf b008 90bf 8f79 28bf
000000d0: 77ae 5d3f b1ce 533f b4c7 e83d 4242 543f
000000e0: 1b9b a43e 1eb5 013f 366c 40bf 7e9f 84bf
000000f0: f843 2bbf ea55 f7be 70fa 593e cd4e 983e
00000100: b1d4 0bbf 9089 053f a762 1b3f c475 4b3f
00000110: 5b55 353f 778e 883e 4809 21bf 9093 11bf
00000120: 231f 103f 034c 043f ef46 693e 2db0 40bf
00000130: e9ff 1c3f a446 2e3f 0a45 3ebf 095a 54bf
00000140: 84f9 ffbe 2991 003f ba74 433f ff31 623e
00000150: 8d3d 1a3f dadd f1be 248e f53e 4a48 93bf
00000160: 7b81 28bf d038 65bf 9f06 c83e 4476 ba3e
00000170: 009f dbbe e995 5c3e f5a8 033f eda2 67bf
00000180: e5fa ca3e 36ba d23e ffd3 7fbf 59b6 0cbf
00000190: ae7c 2a3f 344c 0f3e 28e5 4cbf a79b 293f
000001a0: fda0 373f 6073 debe 377f 9ebe 0ee1 f73e
000001b0: 1c21 393f a8b4 ae3e af4f 3d3e 698d 1abf
000001c0: 1620 02bf 56f2 17bf 282c e93e 551e 1a3f
000001d0: 9629 2fbf a7c9 a23e 8a32 253f b0fa 823e
000001e0: b61e 2e3f 6da6 9b3d 9981 073f e2c3 25bf
000001f0: 6b2e 3d3f 4ce3 26bf 845d 6c3f 8f8d fa3e
-1.0023693 -1.0163965 -0.8070271 0.7270836 0.583195 0.71578354 -0.96016383 0.17870206
1.0270594 0.25835732 -0.44902906 0.13487081 0.9813119 0.2816027 1.0041715 0.25588602
0.73646384 -0.7928356 0.63729227 0.3971929 0.06612784 0.32804072 0.0366324 0.26712418
0.45126098 0.53508914 0.15093274 0.58206123 0.7724326 0.10371191 0.1490244 0.73460114
-0.56556326 0.47959298 0.27817753 -0.7408615 -0.5977785 -0.80208296 -0.8322127 -0.7380309
0.9730083 0.4730841 0.35669303 0.420456 -0.43478036 0.50053555 -0.57624954 -0.94766724
-1.2301089 -0.70318204 -1.1252651 -0.65810484 0.8659434 0.8273726 0.11366215 0.829136
0.32149586 0.5066699 -0.75165117 -1.0361173 -0.6690059 -0.48307735 0.2128694 0.2974762
-0.54621416 0.5216303 0.60697407 0.7947657 0.7083337 0.26671192 -0.6290479 -0.5686579
0.5629751 0.51678485 0.22780965 -0.7526882 0.6132799 0.6807654 -0.74324095 -0.8294988
-0.49995053 0.50221497 0.76349986 0.22089384 0.6025017 -0.47239572 0.47960007 -1.1506436
-0.6582257 -0.89539814 0.39067551 0.36418355 -0.42894745 0.21541561 0.5142968 -0.9048298
0.39644542 0.41157693 -0.99932855 -0.5496574 0.66596496 0.13993913 -0.80037165 0.6625313
0.71730024 -0.434474 -0.30956432 0.4841389 0.72316146 0.34122205 0.18487428 -0.60372025
-0.5083021 -0.5935415 0.455415 0.60202533 -0.6842283 0.31794474 0.6453024 0.25581884
0.6801561 0.076001026 0.52932125 -0.6475202 0.73898953 -0.6519058 0.92330194 0.48936126
