practical/self/mnist-only-linear-hidden.pth (torch, 404696 bytes, 3 tensors)

hidden.weight f4 [128, 784]
0	0x3ce779ec	0.028256379
1	0xb9a42493	-0.00031307767
2	0xbc849e47	-0.016188754
3	0xbc0d1617	-0.008611224
4	0x3afb136e	0.0019155571
5	0x3cf8ef9a	0.030387688
6	0x3b866437	0.004101302
7	0x3b380401	0.0028078558
8	0x3c3b1921	0.011419565
9	0x3ca10ac3	0.019658452
10	0xbcdc7861	-0.02691287
11	0xbc9b21d7	-0.018937035
12	0xbd0bdf71	-0.034148637
13	0xbd157475	-0.036488015
14	0xbd0af191	-0.033921782
15	0xbbf0ac5b	-0.007344765
16	0xbcf9e8b1	-0.030506464
17	0xbc84ab7e	-0.016195055
18	0xbd0a3ae4	-0.03374757
19	0xbcf3b9c8	-0.029751673
20	0x3ca2378a	0.019801874
21	0x3ca141da	0.01968472
22	0xbcb5ed71	-0.022207947
23	0xbcb9b365	-0.02266855
24	0xbd026173	-0.031831216
25	0xbb71ba38	-0.0036884677
26	0x3cead2d5	0.028664986
27	0xbac610b7	-0.0015111183
28	0xbc9ed557	-0.019388838
29	0xbca5a397	-0.020219607
30	0xbca81ab3	-0.020520544
31	0x3c867347	0.01641239
32	0xba145314	-0.00056581316
33	0xbc13007f	-0.008972286
34	0xbcc46cc3	-0.023977643
35	0xbcb98a52	-0.022648964
36	0xbafaeecb	-0.0019144652
37	0xbb03615f	-0.0020047051
38	0x3d0c908c	0.03431754
39	0xbbf38a18	-0.0074322335
40	0x3c9dde39	0.019271003
41	0x3cf9b88e	0.03048351
42	0x3c838679	0.016055332
43	0x3baf09ad	0.0053417296
44	0x3cb81e7e	0.022475477
45	0x3cc1f92d	0.023678387
46	0xbb280dd1	-0.0025643
47	0xbc40faeb	-0.0117785735
48	0x3d316795	0.043311674
49	0xbc50708f	-0.012722149
50	0x3cb5caec	0.022191487
51	0x3d0f3c7c	0.03496979
52	0x3d0f3e4f	0.03497153
53	0xbcd58fc1	-0.026069524
54	0x3d06dcbc	0.032925352
55	0xba94526e	-0.001131607
56	0xbb449cb7	-0.0030000636
57	0x3bfed201	0.0077764993
58	0xbc531480	-0.012883306
59	0x3a64133a	0.0008700375
60	0xbcd735e2	-0.02627081
61	0x3cbb7f7d	0.02288794
62	0x3bfa3a77	0.007636364
63	0x3d8408f6	0.06447022
64	0x3da1fc23	0.079094194
65	0x3dd0cd35	0.1019539
66	0x3dc41243	0.09573796
67	0x3d9497a4	0.07255486
68	0x3dd1a53b	0.10236593
69	0x3d6b28ba	0.057411887
70	0x3d9eda0a	0.077564314
71	0x3d916d7c	0.071009606
72	0x3dfd44a8	0.12366611
73	0x3d679590	0.05653912
74	0x3d81046f	0.06299674
75	0x3dcda0bd	0.10040424
76	0x3d5e0b07	0.054209735
77	0x3db3d880	0.087815285
78	0x3d2e2694	0.04251726
79	0x3c730622	0.014833005
80	0xbc9d7eec	-0.01922556
81	0xbd23df0b	-0.040007632
82	0x3b6eef01	0.0036458375
83	0xbd0d029b	-0.034426313
84	0x3bf5e853	0.007504502
85	0x3cc7a447	0.024370326
86	0xbbc86dfd	-0.0061166272
87	0x3d0898f7	0.033349004
88	0xbc313c98	-0.010817669
89	0xbc12f5fb	-0.008969779
90	0x3d41ba06	0.047296546
91	0x3d995d7e	0.07488535
92	0x3d5aae99	0.053389166
93	0x3d44d01c	0.04805003
94	0x3d61278a	0.054969348
95	0x3a3fdd8d	0.00073190854
96	0xbc510370	-0.012757167
97	0x3b06bd35	0.0020559554
98	0x3d92b909	0.07164199
99	0x3d32051f	0.043461915
100	0x3bcf8e4f	0.006334103
101	0x3d9adcb3	0.07561626
102	0x3da43114	0.080171734
103	0x3d9a49e6	0.07533626
104	0x3daf4467	0.085579686
105	0x3e214d94	0.1575225
106	0x3e1394e6	0.14412269
107	0x3e0194d1	0.12654425
108	0x3dbcc068	0.09216386
109	0x3cfc49ce	0.030796912
110	0x3bfd7802	0.0077352533
111	0xbcbcdd23	-0.023054665
112	0x3b1237ca	0.0022311085
113	0xbc1472f5	-0.009060611
114	0xbb312315	-0.0027028967
115	0xbcb5578f	-0.022136478
116	0x3b953815	0.0045538046
117	0xbbcb5e98	-0.006206345
118	0xbccd4a53	-0.025059855
119	0xbc5fabf7	-0.013651839
120	0xbc18d2fc	-0.009327646
121	0x3d259574	0.040425733
122	0x3d0f2a9e	0.034952752
123	0x3d02d05e	0.031936996
124	0xbd01656e	-0.03159087
125	0xbc215f87	-0.009849436
126	0xbab8f18a	-0.001411007
127	0xbc1a79f0	-0.009428486
128	0x3ce092b8	0.027413711
129	0x3bb292f1	0.0054496457
130	0xbc0f3841	-0.008741439
131	0xbcb3dafc	-0.021955006
132	0xbd1615a1	-0.03664172
133	0x3cb4abeb	0.022054633
134	0xbcd6de6d	-0.026229108
135	0x3d169f09	0.03677276
136	0x3d9427fe	0.072341904
137	0x3d4a1709	0.049338374
138	0x3d284fe8	0.04109183
139	0xbbb05791	-0.0053815325
140	0xbb072037	-0.0020618567
141	0x3d011b0a	0.031519927
142	0x3cae6581	0.021288635
143	0xbbf60a26	-0.007508534
144	0x3c94b5df	0.01815313
145	0xbcd09d3a	-0.025465596
146	0xbd160758	-0.036628097
147	0x3c07eaa8	0.0082956925
148	0x3d68b21e	0.05681049
149	0x3c83aca7	0.016073538
150	0x3a8840e5	0.0010395317
151	0xbccfdabc	-0.025372855
152	0x3c735f22	0.014854224
153	0xbd4cf41a	-0.05003748
154	0xbc9831ae	-0.018578377
155	0xbd122557	-0.03568014
156	0xbd0ee5b4	-0.03488703
157	0xbce85f71	-0.028365823
158	0xbb7ca610	-0.003855113
159	0xbcc5b32c	-0.024133287
160	0xbc157488	-0.0091220215
161	0xbc46b394	-0.012127776
162	0x3c07bbd5	0.008284529
163	0xbd3a68c9	-0.045510087
164	0x3db06048	0.08612114
165	0x3d813232	0.06308402
166	0x3d360bb3	0.04444475
167	0xbce24ef4	-0.027625538
168	0x3cd3b87c	0.025844805
169	0x3c91e0a8	0.01780732
170	0x3d1a1496	0.03761729
171	0xbba46d47	-0.0050179097
172	0xbcf4e7ff	-0.02989578
173	0x3d484ba2	0.048900254
174	0x3d2ddcc2	0.04244686
175	0x3c93690b	0.017994424
176	0x3ac1a9f2	0.0014775379
177	0xbc674d84	-0.014117602
178	0xbcb871a5	-0.022515127
179	0x3c80006e	0.015625205
180	0xbca0e395	-0.01963977
181	0x3c8c2144	0.017105706
182	0xbc571f50	-0.013130024
183	0x3be5f23f	0.0070174034
184	0x3cd2188e	0.025646474
185	0x3d367232	0.0445425
186	0x3c92c11a	0.017914344
187	0x3ceb83c5	0.028749356
188	0xbc1a2663	-0.009408566
189	0x3a1354e0	0.00056202523
190	0x3cbfce60	0.023413837
191	0x3cee85ab	0.029116472
192	0xbcb7371e	-0.02236515
193	0x3d47ae42	0.04875017
194	0x3d084590	0.033269465
195	0x3c75b821	0.014997513
196	0xbcb00a92	-0.021489415
197	0xbbbe0a4f	-0.0057995687
198	0x3d433da5	0.04766621
199	0x3c86977f	0.01642966
200	0xbbaef88b	-0.005339687
201	0xbafd2a4b	-0.0019314972
202	0xbbc4eccb	-0.0060096732
203	0x3cd21ee6	0.0256495
204	0x3c82e602	0.015978817
205	0xbc6fa09d	-0.0146256955
206	0x3d372d81	0.04472113
207	0x3d155d2b	0.036465805
208	0x3c7d1736	0.015447428
209	0x3cecae6a	0.02889176
210	0x3cc5e234	0.024155714
211	0x3c650ec0	0.013980567
212	0x3c99d440	0.018777966
213	0xbd170de4	-0.03687848
214	0xbc15e4f4	-0.009148825
215	0xbd1f4323	-0.038882386
216	0xb9ba0caa	-0.0003548612
217	0x3b3b6c9e	0.0028598676
218	0xbd87bd5b	-0.066279136
219	0xbc8771e7	-0.016533805
220	0x3dde3bf6	0.108512804
221	0xbcbe0add	-0.02319854
222	0x3cc57794	0.02410487
223	0xbce731ed	-0.028222049
224	0xbce89699	-0.028392123
225	0xbc01e423	-0.007927927
226	0x3d5da851	0.054115597
227	0xbc9bdbd1	-0.019025715
228	0xbc9f73cd	-0.019464398
229	0xbce31f88	-0.027724996
230	0xbd0c61f6	-0.03427311
231	0x3b84e009	0.0040550274
232	0x3b13fb33	0.0022580146
233	0x3c7be9e9	0.015375593
234	0xbc5f6f5d	-0.013637391
235	0x3c0fad49	0.008769342
236	0x3d06648a	0.032810725
237	0xbcbcd639	-0.023051368
238	0xbd000a58	-0.031259865
239	0x3c23bf46	0.009994334
240	0xbc9916ad	-0.01868757
241	0xbc7f2da2	-0.015574845
242	0x3b77ea5e	0.0037828903
243	0xbb2d6692	-0.0026458842
244	0xbd7f9915	-0.06240185
245	0xbc27a001	-0.010231019
246	0x3cef5927	0.029217316
247	0x3cfd8dcb	0.030951401
248	0x3dc6fec9	0.09716565
249	0x3dbae3bf	0.0912547
250	0x3c9cbb73	0.019132352
251	0x3cac560f	0.02103713
252	0x3ce55115	0.027992764
253	0xbd100b55	-0.035167057
254	0x3d446816	0.047950827
255	0x3d5dd1e3	0.05415524

hidden.bias f4 [128]
0	0xbd96b578	-0.07358831
1	0xbc0ab408	-0.008465774
2	0x3b438e04	0.0029839287
3	0xbdcd6111	-0.100282796
4	0x3d884d40	0.06655359
5	0xbd1401d7	-0.036134567
6	0x3d8e02cd	0.06934128
7	0x3d694835	0.056953628
8	0x3dd51acb	0.10405501
9	0xbe002792	-0.12515095
10	0x3dcef280	0.10104847
11	0xbd09918d	-0.033586074
12	0x3ca80f18	0.02051501
13	0xbe06d984	-0.13168913
14	0xbdb61c3a	-0.088921025
15	0xbdb565bf	-0.08857297
16	0xbd45c2ae	-0.048281364
17	0x3c96e53d	0.018419856
18	0xbdc111ac	-0.09427199
19	0xbdd2d0be	-0.10293721
20	0xbd9f007d	-0.07763765
21	0xbda40325	-0.08008412
22	0x3d92f1d9	0.07175035
23	0xbd2eb4d7	-0.04265293
24	0xbc28c742	-0.010301413
25	0x3e0eb071	0.13934495
26	0xbe133bd7	-0.14378296
27	0x3da47051	0.08029235
28	0x3bd15e2c	0.0063894
29	0xbe1d360c	-0.15352648
30	0xbd58a089	-0.052887473
31	0x3da989f1	0.08278263
32	0xbdf06de6	-0.117397115
33	0x3d406233	0.04696865
34	0xbd9ee691	-0.07758821
35	0xbcee2094	-0.029068269
36	0x3c937d80	0.018004179
37	0xbbe1e9d5	-0.00689433
38	0x3d3fbb44	0.04680945
39	0x3da3a4ac	0.07990393
40	0xbc7e145d	-0.015507785
41	0xbd8ac53b	-0.067759
42	0x3d212b3b	0.03934787
43	0x3d9a6180	0.07538128
44	0xbdd004e1	-0.101571806
45	0xbe08c729	-0.13357224
46	0xbd13a4db	-0.03604589
47	0x3d8ea445	0.06964926
48	0xbdbdc99f	-0.09266972
49	0xbdab25cc	-0.083568186
50	0xbd651cdc	-0.055935726
51	0xbc94c127	-0.018158508
52	0x3d295eb3	0.041350078
53	0x3c99bb32	0.01876602
54	0xbd05ba1a	-0.032648183
55	0x3bbb6d28	0.0057197995
56	0xbc520f80	-0.012821078
57	0xbe250ca6	-0.16118106
58	0xbde2fa30	-0.11082876
59	0xbdcd0100	-0.10009956
60	0x3dc11c2f	0.09429204
61	0xbd433c87	-0.047665145
62	0xbdce0fab	-0.10061582
63	0xbc154cde	-0.009112565
64	0xbd6a182e	-0.057151966
65	0x3e20bc01	0.15696718
66	0x3e0a1ece	0.13488314
67	0xbd959a1d	-0.073047854
68	0xbe3d4236	-0.18482289
69	0x3e076867	0.1322342
70	0xbd6439a5	-0.055719037
71	0x3d696065	0.056976695
72	0xbd6284e7	-0.055302527
73	0x3d75e85a	0.06003604
74	0xbdc46a57	-0.09590595
75	0xbca7bd63	-0.020476049
76	0x3b8790fb	0.004137156
77	0xbcfaede7	-0.030631019
78	0xbd9e73f6	-0.077369615
79	0xbd252ff9	-0.040328953
80	0xbd8a1093	-0.067414425
81	0xbe205e6c	-0.15661019
82	0x3c9f5c55	0.019453207
83	0x3b9fe517	0.0048796046
84	0xbd9e0d07	-0.077173285
85	0xbd28dc05	-0.041225452
86	0xbd8319be	-0.06401394
87	0x3decab20	0.11556077
88	0xbd6433bd	-0.055713404
89	0xbe065adc	-0.13120598
90	0xbd081194	-0.03321989
91	0xbc19634a	-0.009362051
92	0xbddc25fe	-0.10749434
93	0x3d1edd2a	0.038785137
94	0xbe3e6dc4	-0.1859656
95	0xbc66c25c	-0.014084425
96	0x3c1fbe2e	0.009749932
97	0xbd3f9f29	-0.046782646
98	0x3d082a50	0.033243477
99	0x3c0134eb	0.007886152
100	0xbaf70392	-0.0018845669
101	0x3d4e54c4	0.050373808
102	0x3b37ee78	0.0028065722
103	0xbd408349	-0.047000203
104	0xbd62122f	-0.055193122
105	0x3c1bdbaa	0.009512821
106	0xbd0f926e	-0.035051756
107	0xbe246bde	-0.16056773
108	0x3cc6da2b	0.024273952
109	0xbc8b35cc	-0.016993426
110	0xbc617ff7	-0.013763419
111	0x3d76c9d5	0.060251076
112	0x3dec35dc	0.1153371
113	0xbd4c7be0	-0.049922824
114	0xbc6e4c84	-0.01454461
115	0xbd95a48a	-0.07306774
116	0xbd3e2cff	-0.04642963
117	0xbd3d80c6	-0.046265386
118	0x3d72fd77	0.059323754
119	0x3dd89c21	0.10576654
120	0xbd88d1f7	-0.066806726
121	0x3d2e6a38	0.042581767
122	0x3d8e6bb8	0.069541395
123	0xbd8a96d7	-0.06767052
124	0x3e009353	0.125562
125	0x3d3f5e56	0.046720825
126	0x3c801546	0.015635144
127	0x3e0f6706	0.14004144

linear.weight f4 [1, 128]
0	0x3d992414	0.074775845
1	0x3ca23321	0.01979977
2	0x3a98da32	0.0011661707
3	0x3dbde301	0.09271813
4	0xbd84f468	-0.06491929
5	0x3d51e91d	0.051247705
6	0xbd21f1bc	-0.039537176
7	0xbd3d3565	-0.0461935
8	0xbdd2f441	-0.10300494
9	0x3d7661c8	0.060151845
10	0xbd299cc2	-0.04140926
11	0x3d50e5cf	0.051000413
12	0xbbbe1963	-0.005801366
13	0x3da65146	0.081209704
14	0x3da1750b	0.07883652
15	0x3d2f698c	0.042825267
16	0x3d1e69f1	0.038675252
17	0xbd31c5fe	-0.04340171
18	0x3dacac08	0.0843125
19	0x3cf3db98	0.029767796
20	0x3dbfc827	0.09364348
21	0x3d87ef52	0.066374436
22	0xbd3d08fa	-0.04615114
23	0x3d0fba4a	0.03508977
24	0x3c8f6d1b	0.01750808
25	0xbdda3441	-0.10654498
26	0x3d9b6a50	0.07588637
27	0xbd8b04c4	-0.06788018
28	0xbc8cee85	-0.017203579
29	0x3dca9329	0.0989135
30	0x3d216e64	0.039411917
31	0xbd5c9589	-0.053853545
32	0x3d6f1332	0.058367915
33	0xbd3be2c5	-0.04587056
34	0x3ceabd35	0.028654674
35	0x3d09c5bf	0.03363585
36	0xbc4a15f9	-0.01233434
37	0x3cc3bdf6	0.023894291
38	0xbccf5dbf	-0.025313256
39	0xbd07962f	-0.03310221
40	0x3c9dad51	0.019247683
41	0x3d2230f2	0.03959746
42	0xbc18dbfa	-0.00932979
43	0xbd5d4694	-0.054022387
44	0x3dac7b3b	0.08421942
45	0x3db969b4	0.090533644
46	0x3c57c052	0.013168411
47	0xbd598a3a	-0.05311034
48	0x3dbbc859	0.09169073
49	0x3d99321b	0.0748026
50	0x3d79fa7f	0.061029907
51	0x3ca6a0b3	0.0203403
52	0xbd1c1aa2	-0.038111337
53	0xbcec7cd8	-0.028868124
54	0x3d3e7c59	0.046505306
55	0x3c3e80a4	0.01162735
56	0x3c3c5b08	0.011496313
57	0x3e05d849	0.13070787
58	0x3d833934	0.06407395
59	0x3d349cab	0.044094723
60	0xbd37d1ba	-0.044877745
61	0x3d30a534	0.0431263
62	0x3dbd4d6a	0.09243281
63	0xbc5046b4	-0.012712169
64	0x3d1fa60d	0.038976718
65	0xbdd9b2db	-0.10629817
66	0xbdc9e64b	-0.09858378
67	0x3d9d49b1	0.07680071
68	0x3dbeb343	0.09311535
69	0xbd96e596	-0.07368009
70	0x3d0102fa	0.03149698
71	0xbd52a300	-0.05142498
72	0x3d6139a5	0.054986615
73	0xbd2b1513	-0.041768145
74	0x3d6a9f00	0.05728054
75	0x3c6a7ead	0.014312428
76	0xbcef1a1d	-0.029187256
77	0x3cbb8918	0.02289252
78	0x3d6b33ab	0.05742232
79	0x3cf5a67f	0.029986618
80	0x3cc43bc7	0.023954285
81	0x3df362d9	0.11884088
82	0xbd00a997	-0.031411733
83	0xbcb8b63f	-0.02254784
84	0x3da461c3	0.08026459
85	0x3c6e6ad6	0.014551839
86	0x3d7ac36f	0.061221536
87	0xbdac187f	-0.0840311
88	0x3d8bc336	0.06824343
89	0x3d861aa9	0.06548054
90	0xbca3f457	-0.020013971
91	0xbc253275	-0.010082831
92	0x3dabef3f	0.08395242
93	0xbcf1cebd	-0.029517526
94	0x3e0cef7f	0.13763236
95	0x3cba0f2c	0.022712313
96	0xbc4e6d3e	-0.012599288
97	0x3d4dc22c	0.050234005
98	0xba94fd36	-0.0011366967
99	0xbc9676f4	-0.018367268
100	0x3c7c1fc7	0.015388436
101	0xbbf2f886	-0.00741488
102	0x3af1cd69	0.0018448058
103	0xbb7157c9	-0.0036826006
104	0x3cee5a0c	0.029095672
105	0x3ae05546	0.0017115257
106	0xbab77aba	-0.0013998367
107	0x3db94f5d	0.090483405
108	0xbd2aef9c	-0.041732416
109	0x3bf4b762	0.00746815
110	0x38360831	4.339981e-05
111	0xbd36df4f	-0.044646557
112	0xbda6e0bf	-0.08148336
113	0x3d0d969b	0.034567457
114	0x3c7126a5	0.014718686
115	0x3d95246f	0.0728234
116	0x3ce69c0a	0.028150577
117	0x3d75b59c	0.05998765
118	0xbcd2e323	-0.025743073
119	0xbda5b156	-0.08090465
120	0x3d54ae7e	0.05192422
121	0xbd7297fa	-0.059226967
122	0xbd827164	-0.06369284
123	0x3d09396d	0.03350203
124	0xbd7eb9ef	-0.06218904
125	0xbca12566	-0.019671153
126	0xbd0b74ec	-0.034047052
127	0xbdfac192	-0.12243952
