practical/self/mnist-softmax-reg.pth (torch, 32980 bytes, 2 tensors)

linear.weight f4 [10, 784]
0.0073661976 0.0143032335 0.0055463105 0.004821637 -0.024655024 0.014531438 -0.028018178 -0.013578956
-0.02025469 0.034749407 -0.015493113 -0.018353015 0.023095591 0.01606232 -0.0114856735 -0.0040541086
-0.00284341 0.01957827 0.027006635 0.015646918 -0.0195496 0.0017832178 -0.019411437 0.026619457
-0.010664123 -0.017616712 -0.029803447 0.0012658451 -0.023236413 -0.02715603 -0.02587662 -0.026513297
0.03398272 -0.004177728 0.03389414 -5.2839543e-05 -0.016823858 0.020010702 -0.012688764 -0.029797124
0.022675242 -0.0066318545 -0.022401573 -0.0068852217 -0.017707124 -0.0109810885 -0.016565474 0.024023265
-0.021785578 0.031801175 0.0058871973 -0.017692877 -0.027800933 -0.015344535 0.00321536 -0.026744487
-0.033837575 0.024990138 0.028808577 -0.014870855 -0.0062543517 0.0034206305 0.034305487 0.01042778
-0.0076234075 -0.023708701 -0.011713755 0.0064638224 -0.02236999 -0.013284608 -0.029286154 -0.035573937
0.0046769837 -0.00058630644 -0.03589865 0.014009806 -0.03348768 -0.023479024 0.020043965 -0.03059992
-0.008092305 -0.032604773 -0.0067042625 0.028138597 -0.016474664 0.020350773 0.012999411 0.015116835
0.024646245 -0.015260394 -0.030024812 0.0294461 0.005340517 -0.021074973 -0.030419957 -0.03527402
-0.0265983 0.018255211 -0.05587892 -0.028872596 -0.009528776 -0.0030407377 -0.014027923 -0.031693984
-0.020033728 -0.033399012 0.025684664 -0.014146444 0.011791699 -0.025754683 -0.015609932 -0.000382896
-0.01623037 -0.0065397522 -0.0015669118 0.029711062 -0.023625176 0.031333186 0.0039821146 0.006240584
0.014890104 -0.019221542 -0.051107787 0.009106182 -0.023257354 -0.029680058 0.022319114 0.01537421
0.043872442 0.025029453 -0.030822014 -0.032625988 -0.0026100017 -0.0018798213 -0.015077641 -0.041435264
-0.0033057765 0.0118545275 -0.032295316 -0.012073803 0.014445561 -0.002780229 0.0034969915 -0.004359085
-0.0005112893 -0.029931448 -0.04066266 -0.010820012 -0.046608545 -0.039825972 -0.016684115 -0.036409207
-0.02048158 0.03710938 0.06572637 0.07919595 0.046303928 0.096711665 0.025223663 0.005701642
-0.020466384 0.017534563 -0.042616863 0.012185031 -0.011818884 0.012062203 0.023804627 -0.020093322
0.03259629 -0.026893504 0.0008493037 0.02085835 -0.018566582 0.020539852 0.017202305 -0.039040744
-0.05561118 -0.00979233 -0.033551436 -0.023567174 0.018031394 0.032346956 0.06161773 0.1086856
0.06780397 0.076468006 0.10000313 0.06064039 0.045290418 -0.0055288076 0.005994301 -0.053081606
-0.018078681 0.0012272766 -0.031874545 -0.031027663 0.0030144842 -0.027487297 0.0027261316 -0.03687131
0.0055165445 -0.014677833 -0.040961295 -0.023469703 -0.015979284 -0.022106541 -0.037306633 -0.009800773
0.019239401 0.009540281 0.040900525 0.10312841 0.085682824 0.13155726 0.12195248 0.045670267
0.019761933 0.0028223346 0.022183478 -0.015761668 -0.058464397 0.005739026 0.019316107 -0.015229974
0.006110952 0.021503314 0.005381155 -0.018569408 -0.02250332 0.0043710307 -0.022181885 -0.062650256
-0.053736217 -0.016993012 -0.0002366171 0.0030650154 0.06332374 0.06980319 0.018446337 0.05542879
0.058186084 0.092639714 0.09420703 0.106932305 0.08375287 0.027517295 0.0152802495 0.014025356
0.011428359 0.01445179 -0.031671826 0.011569312 -0.01697436 0.005114904 0.019442204 -0.015688643
00000000: 2560 f13b 1c58 6a3c d3bd b53b d3fe 9d3b
00000010: 55f9 c9bc 4515 6e3c 6186 e5bc 457a 5ebc
00000020: 2aed a5bc 6555 0e3d d3d6 7dbc 1059 96bc
00000030: f732 bd3c 2095 833c 682e 3cbc 54d8 84bb
00000040: 8158 3abb 9c62 a03c 053d dd3c f72d 803c
00000050: 7c26 a0bc dcba e93a bc04 9fbc 0c11 da3c
00000060: 93b8 2ebc ec50 90bc 5c26 f4bc b7ea a53a
00000070: 4a5a bebc 5376 debc 35fb d3bc 6a32 d9bc
00000080: 7731 0b3d 53e5 88bb 95d4 0a3d 07a0 5db8
00000090: 30d2 89bc 7ced a33c 89e4 4fbc 1919 f4bc
000000a0: 6ec1 b93c 0750 d9bb 8183 b7bc 6d9d e1bb
000000b0: 880e 91bc 06ea 33bc 51b4 87bc 70cc c43c
000000c0: ab77 b2bc f341 023d 64e9 c03b a7f0 90bc
000000d0: c8be e3bc a567 7bbc cab8 523b 4117 dbbc
000000e0: 4599 0abd 1eb8 cc3c f7ff eb3c e3a4 73bc
000000f0: 4ef1 ccbb a82c 603b e983 0c3d 48d9 2a3c
00000100: c7cd f9bb c038 c2bc 0deb 3fbc 79ce d33b
00000110: 4541 b7bc afa7 59bc 84e9 efbc fab5 11bd
00000120: 6241 993b 5cb2 19ba 760a 13bd 6389 653c
00000130: 612a 09bd 1557 c0bc 3e33 a43c afac fabc
00000140: 9695 04bc 958c 05bd 6eaf dbbb ea82 e63c
00000150: e0f5 86bc aab6 a63c 7bfb 543c 9aac 773c
00000160: ece6 c93c bb06 7abc 98f6 f5bc f338 f13c
00000170: 81ff ae3b 6ca5 acbc 4633 f9bc 7e7b 10bd
00000180: aee4 d9bc f48b 953c 4be1 64bd 3986 ecbc
00000190: 951e 1cbc 1d47 47bb 60d5 65bc 8dd1 01bd
000001a0: c61d a4bc 67cd 08bd a568 d23c 7dc6 67bc
000001b0: f831 413c 7cfb d2bc cdc0 7fbc 6ebf c8b9
000001c0: 8ef5 84bc 6b4b d6bb d660 cdba 9d64 f33c
000001d0: 9689 c1bc 3a57 003d 667c 823b d07d cc3b
000001e0: 9ff5 733c 7f76 9dbc 6656 51bd 1832 153c
000001f0: 3586 bebc 9823 f3bc 93d6 b63c 1ce4 7b3c
00000200: 97b3 333d 910a cd3c 737e fcbc d4a2 05bd
00000210: 900c 2bbb 5664 f6ba 3608 77bc 06b8 29bd
00000220: baa5 58bb 7e39 423c 1848 04bd 33d1 45bc
00000230: 13ad 6c3c 8134 36bb c82d 653b a8d6 8ebb
00000240: 0b08 06ba cc32 f5bc e48d 26bd 6b46 31bc
00000250: 9ae8 3ebd 8f20 23bd 20ad 88bc d221 15bd
00000260: fdc8 a7bc 0100 183d 8c9b 863d 7c31 a23d
00000270: 30a9 3d3d c410 c63d dba1 ce3c d7d4 ba3b
00000280: 1ea9 a7bc a5a4 8f3c 058f 2ebd b9a3 473c
00000290: fea3 41bc 8ca0 453c ec01 c33c c09a a4bc
000002a0: b083 053d c44f dcbc cea3 5e3a 21df aa3c
000002b0: f218 98bc 3143 a83c d9eb 8c3c 30e9 1fbd
000002c0: 8cc8 63bd 0270 20bc 3b6d 09bd f20f c1bc
000002d0: 93b6 933c 3e7e 043d df62 7c3d 8e96 de3d
000002e0: cfdc 8a3d 429b 9c3d 71ce cc3d 0f62 783d
000002f0: 7282 393d 002b b5bb d76b c43b 196c 59bd
00000300: be19 94bc 92dc a03a e28e 02bd ba2d febc
00000310: a78e 453b 0a2d e1bc e6a8 323b 5f06 17bd
00000320: 21c4 b43b 4b7b 70bc 08c7 27bd 8943 c0bc
00000330: fde6 82bc c718 b5bc d7ce 18bd 6c93 20bc
00000340: f39b 9d3c d74e 1c3c 4f87 273d fd34 d33d
00000350: 7a7a af3d f2b6 063e 39c2 f93d bf10 3b3d
00000360: c7e3 a13c ebf6 383b 20ba b53c 9d1e 81bc
00000370: 5d78 6fbd 700e bc3b d03c 9e3c 2487 79bc
00000380: 613e c83b b827 b03c 6654 b03b df1e 98bc
00000390: e258 b8bc dd3a 8f3b c9b6 b5bc c74e 80bd
000003a0: 821a 5cbd ee34 8bbc 6b1c 78b9 6dde 483b
000003b0: e1af 813d faf4 8e3d c61c 973c 4d09 633d
000003c0: 8854 6e3d e4b9 bd3d 9eef c03d 53ff da3d
000003d0: a086 ab3d f36b e13c 035a 7a3c 9bca 653c
000003e0: 033e 3b3c 33c7 6c3c 51ba 01bd 368d 3d3c
000003f0: d00d 8bbc ed9a a73b 4245 9f3c 7885 80bc

linear.bias f4 [10]
-0.051163264 0.14777146 -0.03560089 -0.07779338 0.056419566 0.1430154 0.009540637 0.07456133
-0.23831865 -0.011001435
00000000: 9290 51bd 6751 173e 3dd2 11bd 2352 9fbd
00000010: 3418 673d a172 123e 5550 1c3c 9cb3 983d
00000020: ce09 74be 5d3f 34bc
